===== COMBINED TRANSFER LEARNING MODEL SUMMARY =====
Date: 2025-04-14 23:32:49.435209

1. OVERALL MODEL ARCHITECTURE:
CombinedTransferModel(
  (skin_tone_model): AttentionSkinToneClassifier(
    (backbone): EfficientNet(
      (features): Sequential(
        (0): Conv2dNormActivation(
          (0): Conv2d(3, 40, kernel_size=(3, 3), stride=(2, 2), padding=(1, 1), bias=False)
          (1): BatchNorm2d(40, eps=1e-05, momentum=0.1, affine=True, track_running_stats=True)
          (2): SiLU(inplace=True)
        )
        (1): Sequential(
          (0): MBConv(
            (block): Sequential(
              (0): Conv2dNormActivation(
                (0): Conv2d(40, 40, kernel_size=(3, 3), stride=(1, 1), padding=(1, 1), groups=40, bias=False)
                (1): BatchNorm2d(40, eps=1e-05, momentum=0.1, affine=True, track_running_stats=True)
                (2): SiLU(inplace=True)
              )
              (1): SqueezeExcitation(
                (avgpool): AdaptiveAvgPool2d(output_size=1)
                (fc1): Conv2d(40, 10, kernel_size=(1, 1), stride=(1, 1))
                (fc2): Conv2d(10, 40, kernel_size=(1, 1), stride=(1, 1))
                (activation): SiLU(inplace=True)
                (scale_activation): Sigmoid()
              )
              (2): Conv2dNormActivation(
                (0): Conv2d(40, 24, kernel_size=(1, 1), stride=(1, 1), bias=False)
                (1): BatchNorm2d(24, eps=1e-05, momentum=0.1, affine=True, track_running_stats=True)
              )
            )
            (stochastic_depth): StochasticDepth(p=0.0, mode=row)
          )
          (1): MBConv(
            (block): Sequential(
              (0): Conv2dNormActivation(
                (0): Conv2d(24, 24, kernel_size=(3, 3), stride=(1, 1), padding=(1, 1), groups=24, bias=False)
                (1): BatchNorm2d(24, eps=1e-05, momentum=0.1, affine=True, track_running_stats=True)
                (2): SiLU(inplace=True)
              )
              (1): SqueezeExcitation(
                (avgpool): AdaptiveAvgPool2d(output_size=1)
                (fc1): Conv2d(24, 6, kernel_size=(1, 1), stride=(1, 1))
                (fc2): Conv2d(6, 24, kernel_size=(1, 1), stride=(1, 1))
                (activation): SiLU(inplace=True)
                (scale_activation): Sigmoid()
              )
              (2): Conv2dNormActivation(
                (0): Conv2d(24, 24, kernel_size=(1, 1), stride=(1, 1), bias=False)
                (1): BatchNorm2d(24, eps=1e-05, momentum=0.1, affine=True, track_running_stats=True)
              )
            )
            (stochastic_depth): StochasticDepth(p=0.007692307692307693, mode=row)
          )
        )
        (2): Sequential(
          (0): MBConv(
            (block): Sequential(
              (0): Conv2dNormActivation(
                (0): Conv2d(24, 144, kernel_size=(1, 1), stride=(1, 1), bias=False)
                (1): BatchNorm2d(144, eps=1e-05, momentum=0.1, affine=True, track_running_stats=True)
                (2): SiLU(inplace=True)
              )
              (1): Conv2dNormActivation(
                (0): Conv2d(144, 144, kernel_size=(3, 3), stride=(2, 2), padding=(1, 1), groups=144, bias=False)
                (1): BatchNorm2d(144, eps=1e-05, momentum=0.1, affine=True, track_running_stats=True)
                (2): SiLU(inplace=True)
              )
              (2): SqueezeExcitation(
                (avgpool): AdaptiveAvgPool2d(output_size=1)
                (fc1): Conv2d(144, 6, kernel_size=(1, 1), stride=(1, 1))
                (fc2): Conv2d(6, 144, kernel_size=(1, 1), stride=(1, 1))
                (activation): SiLU(inplace=True)
                (scale_activation): Sigmoid()
              )
              (3): Conv2dNormActivation(
                (0): Conv2d(144, 32, kernel_size=(1, 1), stride=(1, 1), bias=False)
                (1): BatchNorm2d(32, eps=1e-05, momentum=0.1, affine=True, track_running_stats=True)
              )
            )
            (stochastic_depth): StochasticDepth(p=0.015384615384615385, mode=row)
          )
          (1): MBConv(
            (block): Sequential(
              (0): Conv2dNormActivation(
                (0): Conv2d(32, 192, kernel_size=(1, 1), stride=(1, 1), bias=False)
                (1): BatchNorm2d(192, eps=1e-05, momentum=0.1, affine=True, track_running_stats=True)
                (2): SiLU(inplace=True)
              )
              (1): Conv2dNormActivation(
                (0): Conv2d(192, 192, kernel_size=(3, 3), stride=(1, 1), padding=(1, 1), groups=192, bias=False)
                (1): BatchNorm2d(192, eps=1e-05, momentum=0.1, affine=True, track_running_stats=True)
                (2): SiLU(inplace=True)
              )
              (2): SqueezeExcitation(
                (avgpool): AdaptiveAvgPool2d(output_size=1)
                (fc1): Conv2d(192, 8, kernel_size=(1, 1), stride=(1, 1))
                (fc2): Conv2d(8, 192, kernel_size=(1, 1), stride=(1, 1))
                (activation): SiLU(inplace=True)
                (scale_activation): Sigmoid()
              )
              (3): Conv2dNormActivation(
                (0): Conv2d(192, 32, kernel_size=(1, 1), stride=(1, 1), bias=False)
                (1): BatchNorm2d(32, eps=1e-05, momentum=0.1, affine=True, track_running_stats=True)
              )
            )
            (stochastic_depth): StochasticDepth(p=0.02307692307692308, mode=row)
          )
          (2): MBConv(
            (block): Sequential(
              (0): Conv2dNormActivation(
                (0): Conv2d(32, 192, kernel_size=(1, 1), stride=(1, 1), bias=False)
                (1): BatchNorm2d(192, eps=1e-05, momentum=0.1, affine=True, track_running_stats=True)
                (2): SiLU(inplace=True)
              )
              (1): Conv2dNormActivation(
                (0): Conv2d(192, 192, kernel_size=(3, 3), stride=(1, 1), padding=(1, 1), groups=192, bias=False)
                (1): BatchNorm2d(192, eps=1e-05, momentum=0.1, affine=True, track_running_stats=True)
                (2): SiLU(inplace=True)
              )
              (2): SqueezeExcitation(
                (avgpool): AdaptiveAvgPool2d(output_size=1)
                (fc1): Conv2d(192, 8, kernel_size=(1, 1), stride=(1, 1))
                (fc2): Conv2d(8, 192, kernel_size=(1, 1), stride=(1, 1))
                (activation): SiLU(inplace=True)
                (scale_activation): Sigmoid()
              )
              (3): Conv2dNormActivation(
                (0): Conv2d(192, 32, kernel_size=(1, 1), stride=(1, 1), bias=False)
                (1): BatchNorm2d(32, eps=1e-05, momentum=0.1, affine=True, track_running_stats=True)
              )
            )
            (stochastic_depth): StochasticDepth(p=0.03076923076923077, mode=row)
          )
        )
        (3): Sequential(
          (0): MBConv(
            (block): Sequential(
              (0): Conv2dNormActivation(
                (0): Conv2d(32, 192, kernel_size=(1, 1), stride=(1, 1), bias=False)
                (1): BatchNorm2d(192, eps=1e-05, momentum=0.1, affine=True, track_running_stats=True)
                (2): SiLU(inplace=True)
              )
              (1): Conv2dNormActivation(
                (0): Conv2d(192, 192, kernel_size=(5, 5), stride=(2, 2), padding=(2, 2), groups=192, bias=False)
                (1): BatchNorm2d(192, eps=1e-05, momentum=0.1, affine=True, track_running_stats=True)
                (2): SiLU(inplace=True)
              )
              (2): SqueezeExcitation(
                (avgpool): AdaptiveAvgPool2d(output_size=1)
                (fc1): Conv2d(192, 8, kernel_size=(1, 1), stride=(1, 1))
                (fc2): Conv2d(8, 192, kernel_size=(1, 1), stride=(1, 1))
                (activation): SiLU(inplace=True)
                (scale_activation): Sigmoid()
              )
              (3): Conv2dNormActivation(
                (0): Conv2d(192, 48, kernel_size=(1, 1), stride=(1, 1), bias=False)
                (1): BatchNorm2d(48, eps=1e-05, momentum=0.1, affine=True, track_running_stats=True)
              )
            )
            (stochastic_depth): StochasticDepth(p=0.038461538461538464, mode=row)
          )
          (1): MBConv(
            (block): Sequential(
              (0): Conv2dNormActivation(
                (0): Conv2d(48, 288, kernel_size=(1, 1), stride=(1, 1), bias=False)
                (1): BatchNorm2d(288, eps=1e-05, momentum=0.1, affine=True, track_running_stats=True)
                (2): SiLU(inplace=True)
              )
              (1): Conv2dNormActivation(
                (0): Conv2d(288, 288, kernel_size=(5, 5), stride=(1, 1), padding=(2, 2), groups=288, bias=False)
                (1): BatchNorm2d(288, eps=1e-05, momentum=0.1, affine=True, track_running_stats=True)
                (2): SiLU(inplace=True)
              )
              (2): SqueezeExcitation(
                (avgpool): AdaptiveAvgPool2d(output_size=1)
                (fc1): Conv2d(288, 12, kernel_size=(1, 1), stride=(1, 1))
                (fc2): Conv2d(12, 288, kernel_size=(1, 1), stride=(1, 1))
                (activation): SiLU(inplace=True)
                (scale_activation): Sigmoid()
              )
              (3): Conv2dNormActivation(
                (0): Conv2d(288, 48, kernel_size=(1, 1), stride=(1, 1), bias=False)
                (1): BatchNorm2d(48, eps=1e-05, momentum=0.1, affine=True, track_running_stats=True)
              )
            )
            (stochastic_depth): StochasticDepth(p=0.04615384615384616, mode=row)
          )
          (2): MBConv(
            (block): Sequential(
              (0): Conv2dNormActivation(
                (0): Conv2d(48, 288, kernel_size=(1, 1), stride=(1, 1), bias=False)
                (1): BatchNorm2d(288, eps=1e-05, momentum=0.1, affine=True, track_running_stats=True)
                (2): SiLU(inplace=True)
              )
              (1): Conv2dNormActivation(
                (0): Conv2d(288, 288, kernel_size=(5, 5), stride=(1, 1), padding=(2, 2), groups=288, bias=False)
                (1): BatchNorm2d(288, eps=1e-05, momentum=0.1, affine=True, track_running_stats=True)
                (2): SiLU(inplace=True)
              )
              (2): SqueezeExcitation(
                (avgpool): AdaptiveAvgPool2d(output_size=1)
                (fc1): Conv2d(288, 12, kernel_size=(1, 1), stride=(1, 1))
                (fc2): Conv2d(12, 288, kernel_size=(1, 1), stride=(1, 1))
                (activation): SiLU(inplace=True)
                (scale_activation): Sigmoid()
              )
              (3): Conv2dNormActivation(
                (0): Conv2d(288, 48, kernel_size=(1, 1), stride=(1, 1), bias=False)
                (1): BatchNorm2d(48, eps=1e-05, momentum=0.1, affine=True, track_running_stats=True)
              )
            )
            (stochastic_depth): StochasticDepth(p=0.05384615384615385, mode=row)
          )
        )
        (4): Sequential(
          (0): MBConv(
            (block): Sequential(
              (0): Conv2dNormActivation(
                (0): Conv2d(48, 288, kernel_size=(1, 1), stride=(1, 1), bias=False)
                (1): BatchNorm2d(288, eps=1e-05, momentum=0.1, affine=True, track_running_stats=True)
                (2): SiLU(inplace=True)
              )
              (1): Conv2dNormActivation(
                (0): Conv2d(288, 288, kernel_size=(3, 3), stride=(2, 2), padding=(1, 1), groups=288, bias=False)
                (1): BatchNorm2d(288, eps=1e-05, momentum=0.1, affine=True, track_running_stats=True)
                (2): SiLU(inplace=True)
              )
              (2): SqueezeExcitation(
                (avgpool): AdaptiveAvgPool2d(output_size=1)
                (fc1): Conv2d(288, 12, kernel_size=(1, 1), stride=(1, 1))
                (fc2): Conv2d(12, 288, kernel_size=(1, 1), stride=(1, 1))
                (activation): SiLU(inplace=True)
                (scale_activation): Sigmoid()
              )
              (3): Conv2dNormActivation(
                (0): Conv2d(288, 96, kernel_size=(1, 1), stride=(1, 1), bias=False)
                (1): BatchNorm2d(96, eps=1e-05, momentum=0.1, affine=True, track_running_stats=True)
              )
            )
            (stochastic_depth): StochasticDepth(p=0.06153846153846154, mode=row)
          )
          (1): MBConv(
            (block): Sequential(
              (0): Conv2dNormActivation(
                (0): Conv2d(96, 576, kernel_size=(1, 1), stride=(1, 1), bias=False)
                (1): BatchNorm2d(576, eps=1e-05, momentum=0.1, affine=True, track_running_stats=True)
                (2): SiLU(inplace=True)
              )
              (1): Conv2dNormActivation(
                (0): Conv2d(576, 576, kernel_size=(3, 3), stride=(1, 1), padding=(1, 1), groups=576, bias=False)
                (1): BatchNorm2d(576, eps=1e-05, momentum=0.1, affine=True, track_running_stats=True)
                (2): SiLU(inplace=True)
              )
              (2): SqueezeExcitation(
                (avgpool): AdaptiveAvgPool2d(output_size=1)
                (fc1): Conv2d(576, 24, kernel_size=(1, 1), stride=(1, 1))
                (fc2): Conv2d(24, 576, kernel_size=(1, 1), stride=(1, 1))
                (activation): SiLU(inplace=True)
                (scale_activation): Sigmoid()
              )
              (3): Conv2dNormActivation(
                (0): Conv2d(576, 96, kernel_size=(1, 1), stride=(1, 1), bias=False)
                (1): BatchNorm2d(96, eps=1e-05, momentum=0.1, affine=True, track_running_stats=True)
              )
            )
            (stochastic_depth): StochasticDepth(p=0.06923076923076923, mode=row)
          )
          (2): MBConv(
            (block): Sequential(
              (0): Conv2dNormActivation(
                (0): Conv2d(96, 576, kernel_size=(1, 1), stride=(1, 1), bias=False)
                (1): BatchNorm2d(576, eps=1e-05, momentum=0.1, affine=True, track_running_stats=True)
                (2): SiLU(inplace=True)
              )
              (1): Conv2dNormActivation(
                (0): Conv2d(576, 576, kernel_size=(3, 3), stride=(1, 1), padding=(1, 1), groups=576, bias=False)
                (1): BatchNorm2d(576, eps=1e-05, momentum=0.1, affine=True, track_running_stats=True)
                (2): SiLU(inplace=True)
              )
              (2): SqueezeExcitation(
                (avgpool): AdaptiveAvgPool2d(output_size=1)
                (fc1): Conv2d(576, 24, kernel_size=(1, 1), stride=(1, 1))
                (fc2): Conv2d(24, 576, kernel_size=(1, 1), stride=(1, 1))
                (activation): SiLU(inplace=True)
                (scale_activation): Sigmoid()
              )
              (3): Conv2dNormActivation(
                (0): Conv2d(576, 96, kernel_size=(1, 1), stride=(1, 1), bias=False)
                (1): BatchNorm2d(96, eps=1e-05, momentum=0.1, affine=True, track_running_stats=True)
              )
            )
            (stochastic_depth): StochasticDepth(p=0.07692307692307693, mode=row)
          )
          (3): MBConv(
            (block): Sequential(
              (0): Conv2dNormActivation(
                (0): Conv2d(96, 576, kernel_size=(1, 1), stride=(1, 1), bias=False)
                (1): BatchNorm2d(576, eps=1e-05, momentum=0.1, affine=True, track_running_stats=True)
                (2): SiLU(inplace=True)
              )
              (1): Conv2dNormActivation(
                (0): Conv2d(576, 576, kernel_size=(3, 3), stride=(1, 1), padding=(1, 1), groups=576, bias=False)
                (1): BatchNorm2d(576, eps=1e-05, momentum=0.1, affine=True, track_running_stats=True)
                (2): SiLU(inplace=True)
              )
              (2): SqueezeExcitation(
                (avgpool): AdaptiveAvgPool2d(output_size=1)
                (fc1): Conv2d(576, 24, kernel_size=(1, 1), stride=(1, 1))
                (fc2): Conv2d(24, 576, kernel_size=(1, 1), stride=(1, 1))
                (activation): SiLU(inplace=True)
                (scale_activation): Sigmoid()
              )
              (3): Conv2dNormActivation(
                (0): Conv2d(576, 96, kernel_size=(1, 1), stride=(1, 1), bias=False)
                (1): BatchNorm2d(96, eps=1e-05, momentum=0.1, affine=True, track_running_stats=True)
              )
            )
            (stochastic_depth): StochasticDepth(p=0.08461538461538462, mode=row)
          )
          (4): MBConv(
            (block): Sequential(
              (0): Conv2dNormActivation(
                (0): Conv2d(96, 576, kernel_size=(1, 1), stride=(1, 1), bias=False)
                (1): BatchNorm2d(576, eps=1e-05, momentum=0.1, affine=True, track_running_stats=True)
                (2): SiLU(inplace=True)
              )
              (1): Conv2dNormActivation(
                (0): Conv2d(576, 576, kernel_size=(3, 3), stride=(1, 1), padding=(1, 1), groups=576, bias=False)
                (1): BatchNorm2d(576, eps=1e-05, momentum=0.1, affine=True, track_running_stats=True)
                (2): SiLU(inplace=True)
              )
              (2): SqueezeExcitation(
                (avgpool): AdaptiveAvgPool2d(output_size=1)
                (fc1): Conv2d(576, 24, kernel_size=(1, 1), stride=(1, 1))
                (fc2): Conv2d(24, 576, kernel_size=(1, 1), stride=(1, 1))
                (activation): SiLU(inplace=True)
                (scale_activation): Sigmoid()
              )
              (3): Conv2dNormActivation(
                (0): Conv2d(576, 96, kernel_size=(1, 1), stride=(1, 1), bias=False)
                (1): BatchNorm2d(96, eps=1e-05, momentum=0.1, affine=True, track_running_stats=True)
              )
            )
            (stochastic_depth): StochasticDepth(p=0.09230769230769233, mode=row)
          )
        )
        (5): Sequential(
          (0): MBConv(
            (block): Sequential(
              (0): Conv2dNormActivation(
                (0): Conv2d(96, 576, kernel_size=(1, 1), stride=(1, 1), bias=False)
                (1): BatchNorm2d(576, eps=1e-05, momentum=0.1, affine=True, track_running_stats=True)
                (2): SiLU(inplace=True)
              )
              (1): Conv2dNormActivation(
                (0): Conv2d(576, 576, kernel_size=(5, 5), stride=(1, 1), padding=(2, 2), groups=576, bias=False)
                (1): BatchNorm2d(576, eps=1e-05, momentum=0.1, affine=True, track_running_stats=True)
                (2): SiLU(inplace=True)
              )
              (2): SqueezeExcitation(
                (avgpool): AdaptiveAvgPool2d(output_size=1)
                (fc1): Conv2d(576, 24, kernel_size=(1, 1), stride=(1, 1))
                (fc2): Conv2d(24, 576, kernel_size=(1, 1), stride=(1, 1))
                (activation): SiLU(inplace=True)
                (scale_activation): Sigmoid()
              )
              (3): Conv2dNormActivation(
                (0): Conv2d(576, 136, kernel_size=(1, 1), stride=(1, 1), bias=False)
                (1): BatchNorm2d(136, eps=1e-05, momentum=0.1, affine=True, track_running_stats=True)
              )
            )
            (stochastic_depth): StochasticDepth(p=0.1, mode=row)
          )
          (1): MBConv(
            (block): Sequential(
              (0): Conv2dNormActivation(
                (0): Conv2d(136, 816, kernel_size=(1, 1), stride=(1, 1), bias=False)
                (1): BatchNorm2d(816, eps=1e-05, momentum=0.1, affine=True, track_running_stats=True)
                (2): SiLU(inplace=True)
              )
              (1): Conv2dNormActivation(
                (0): Conv2d(816, 816, kernel_size=(5, 5), stride=(1, 1), padding=(2, 2), groups=816, bias=False)
                (1): BatchNorm2d(816, eps=1e-05, momentum=0.1, affine=True, track_running_stats=True)
                (2): SiLU(inplace=True)
              )
              (2): SqueezeExcitation(
                (avgpool): AdaptiveAvgPool2d(output_size=1)
                (fc1): Conv2d(816, 34, kernel_size=(1, 1), stride=(1, 1))
                (fc2): Conv2d(34, 816, kernel_size=(1, 1), stride=(1, 1))
                (activation): SiLU(inplace=True)
                (scale_activation): Sigmoid()
              )
              (3): Conv2dNormActivation(
                (0): Conv2d(816, 136, kernel_size=(1, 1), stride=(1, 1), bias=False)
                (1): BatchNorm2d(136, eps=1e-05, momentum=0.1, affine=True, track_running_stats=True)
              )
            )
            (stochastic_depth): StochasticDepth(p=0.1076923076923077, mode=row)
          )
          (2): MBConv(
            (block): Sequential(
              (0): Conv2dNormActivation(
                (0): Conv2d(136, 816, kernel_size=(1, 1), stride=(1, 1), bias=False)
                (1): BatchNorm2d(816, eps=1e-05, momentum=0.1, affine=True, track_running_stats=True)
                (2): SiLU(inplace=True)
              )
              (1): Conv2dNormActivation(
                (0): Conv2d(816, 816, kernel_size=(5, 5), stride=(1, 1), padding=(2, 2), groups=816, bias=False)
                (1): BatchNorm2d(816, eps=1e-05, momentum=0.1, affine=True, track_running_stats=True)
                (2): SiLU(inplace=True)
              )
              (2): SqueezeExcitation(
                (avgpool): AdaptiveAvgPool2d(output_size=1)
                (fc1): Conv2d(816, 34, kernel_size=(1, 1), stride=(1, 1))
                (fc2): Conv2d(34, 816, kernel_size=(1, 1), stride=(1, 1))
                (activation): SiLU(inplace=True)
                (scale_activation): Sigmoid()
              )
              (3): Conv2dNormActivation(
                (0): Conv2d(816, 136, kernel_size=(1, 1), stride=(1, 1), bias=False)
                (1): BatchNorm2d(136, eps=1e-05, momentum=0.1, affine=True, track_running_stats=True)
              )
            )
            (stochastic_depth): StochasticDepth(p=0.11538461538461539, mode=row)
          )
          (3): MBConv(
            (block): Sequential(
              (0): Conv2dNormActivation(
                (0): Conv2d(136, 816, kernel_size=(1, 1), stride=(1, 1), bias=False)
                (1): BatchNorm2d(816, eps=1e-05, momentum=0.1, affine=True, track_running_stats=True)
                (2): SiLU(inplace=True)
              )
              (1): Conv2dNormActivation(
                (0): Conv2d(816, 816, kernel_size=(5, 5), stride=(1, 1), padding=(2, 2), groups=816, bias=False)
                (1): BatchNorm2d(816, eps=1e-05, momentum=0.1, affine=True, track_running_stats=True)
                (2): SiLU(inplace=True)
              )
              (2): SqueezeExcitation(
                (avgpool): AdaptiveAvgPool2d(output_size=1)
                (fc1): Conv2d(816, 34, kernel_size=(1, 1), stride=(1, 1))
                (fc2): Conv2d(34, 816, kernel_size=(1, 1), stride=(1, 1))
                (activation): SiLU(inplace=True)
                (scale_activation): Sigmoid()
              )
              (3): Conv2dNormActivation(
                (0): Conv2d(816, 136, kernel_size=(1, 1), stride=(1, 1), bias=False)
                (1): BatchNorm2d(136, eps=1e-05, momentum=0.1, affine=True, track_running_stats=True)
              )
            )
            (stochastic_depth): StochasticDepth(p=0.12307692307692308, mode=row)
          )
          (4): MBConv(
            (block): Sequential(
              (0): Conv2dNormActivation(
                (0): Conv2d(136, 816, kernel_size=(1, 1), stride=(1, 1), bias=False)
                (1): BatchNorm2d(816, eps=1e-05, momentum=0.1, affine=True, track_running_stats=True)
                (2): SiLU(inplace=True)
              )
              (1): Conv2dNormActivation(
                (0): Conv2d(816, 816, kernel_size=(5, 5), stride=(1, 1), padding=(2, 2), groups=816, bias=False)
                (1): BatchNorm2d(816, eps=1e-05, momentum=0.1, affine=True, track_running_stats=True)
                (2): SiLU(inplace=True)
              )
              (2): SqueezeExcitation(
                (avgpool): AdaptiveAvgPool2d(output_size=1)
                (fc1): Conv2d(816, 34, kernel_size=(1, 1), stride=(1, 1))
                (fc2): Conv2d(34, 816, kernel_size=(1, 1), stride=(1, 1))
                (activation): SiLU(inplace=True)
                (scale_activation): Sigmoid()
              )
              (3): Conv2dNormActivation(
                (0): Conv2d(816, 136, kernel_size=(1, 1), stride=(1, 1), bias=False)
                (1): BatchNorm2d(136, eps=1e-05, momentum=0.1, affine=True, track_running_stats=True)
              )
            )
            (stochastic_depth): StochasticDepth(p=0.13076923076923078, mode=row)
          )
        )
        (6): Sequential(
          (0): MBConv(
            (block): Sequential(
              (0): Conv2dNormActivation(
                (0): Conv2d(136, 816, kernel_size=(1, 1), stride=(1, 1), bias=False)
                (1): BatchNorm2d(816, eps=1e-05, momentum=0.1, affine=True, track_running_stats=True)
                (2): SiLU(inplace=True)
              )
              (1): Conv2dNormActivation(
                (0): Conv2d(816, 816, kernel_size=(5, 5), stride=(2, 2), padding=(2, 2), groups=816, bias=False)
                (1): BatchNorm2d(816, eps=1e-05, momentum=0.1, affine=True, track_running_stats=True)
                (2): SiLU(inplace=True)
              )
              (2): SqueezeExcitation(
                (avgpool): AdaptiveAvgPool2d(output_size=1)
                (fc1): Conv2d(816, 34, kernel_size=(1, 1), stride=(1, 1))
                (fc2): Conv2d(34, 816, kernel_size=(1, 1), stride=(1, 1))
                (activation): SiLU(inplace=True)
                (scale_activation): Sigmoid()
              )
              (3): Conv2dNormActivation(
                (0): Conv2d(816, 232, kernel_size=(1, 1), stride=(1, 1), bias=False)
                (1): BatchNorm2d(232, eps=1e-05, momentum=0.1, affine=True, track_running_stats=True)
              )
            )
            (stochastic_depth): StochasticDepth(p=0.13846153846153847, mode=row)
          )
          (1): MBConv(
            (block): Sequential(
              (0): Conv2dNormActivation(
                (0): Conv2d(232, 1392, kernel_size=(1, 1), stride=(1, 1), bias=False)
                (1): BatchNorm2d(1392, eps=1e-05, momentum=0.1, affine=True, track_running_stats=True)
                (2): SiLU(inplace=True)
              )
              (1): Conv2dNormActivation(
                (0): Conv2d(1392, 1392, kernel_size=(5, 5), stride=(1, 1), padding=(2, 2), groups=1392, bias=False)
                (1): BatchNorm2d(1392, eps=1e-05, momentum=0.1, affine=True, track_running_stats=True)
                (2): SiLU(inplace=True)
              )
              (2): SqueezeExcitation(
                (avgpool): AdaptiveAvgPool2d(output_size=1)
                (fc1): Conv2d(1392, 58, kernel_size=(1, 1), stride=(1, 1))
                (fc2): Conv2d(58, 1392, kernel_size=(1, 1), stride=(1, 1))
                (activation): SiLU(inplace=True)
                (scale_activation): Sigmoid()
              )
              (3): Conv2dNormActivation(
                (0): Conv2d(1392, 232, kernel_size=(1, 1), stride=(1, 1), bias=False)
                (1): BatchNorm2d(232, eps=1e-05, momentum=0.1, affine=True, track_running_stats=True)
              )
            )
            (stochastic_depth): StochasticDepth(p=0.14615384615384616, mode=row)
          )
          (2): MBConv(
            (block): Sequential(
              (0): Conv2dNormActivation(
                (0): Conv2d(232, 1392, kernel_size=(1, 1), stride=(1, 1), bias=False)
                (1): BatchNorm2d(1392, eps=1e-05, momentum=0.1, affine=True, track_running_stats=True)
                (2): SiLU(inplace=True)
              )
              (1): Conv2dNormActivation(
                (0): Conv2d(1392, 1392, kernel_size=(5, 5), stride=(1, 1), padding=(2, 2), groups=1392, bias=False)
                (1): BatchNorm2d(1392, eps=1e-05, momentum=0.1, affine=True, track_running_stats=True)
                (2): SiLU(inplace=True)
              )
              (2): SqueezeExcitation(
                (avgpool): AdaptiveAvgPool2d(output_size=1)
                (fc1): Conv2d(1392, 58, kernel_size=(1, 1), stride=(1, 1))
                (fc2): Conv2d(58, 1392, kernel_size=(1, 1), stride=(1, 1))
                (activation): SiLU(inplace=True)
                (scale_activation): Sigmoid()
              )
              (3): Conv2dNormActivation(
                (0): Conv2d(1392, 232, kernel_size=(1, 1), stride=(1, 1), bias=False)
                (1): BatchNorm2d(232, eps=1e-05, momentum=0.1, affine=True, track_running_stats=True)
              )
            )
            (stochastic_depth): StochasticDepth(p=0.15384615384615385, mode=row)
          )
          (3): MBConv(
            (block): Sequential(
              (0): Conv2dNormActivation(
                (0): Conv2d(232, 1392, kernel_size=(1, 1), stride=(1, 1), bias=False)
                (1): BatchNorm2d(1392, eps=1e-05, momentum=0.1, affine=True, track_running_stats=True)
                (2): SiLU(inplace=True)
              )
              (1): Conv2dNormActivation(
                (0): Conv2d(1392, 1392, kernel_size=(5, 5), stride=(1, 1), padding=(2, 2), groups=1392, bias=False)
                (1): BatchNorm2d(1392, eps=1e-05, momentum=0.1, affine=True, track_running_stats=True)
                (2): SiLU(inplace=True)
              )
              (2): SqueezeExcitation(
                (avgpool): AdaptiveAvgPool2d(output_size=1)
                (fc1): Conv2d(1392, 58, kernel_size=(1, 1), stride=(1, 1))
                (fc2): Conv2d(58, 1392, kernel_size=(1, 1), stride=(1, 1))
                (activation): SiLU(inplace=True)
                (scale_activation): Sigmoid()
              )
              (3): Conv2dNormActivation(
                (0): Conv2d(1392, 232, kernel_size=(1, 1), stride=(1, 1), bias=False)
                (1): BatchNorm2d(232, eps=1e-05, momentum=0.1, affine=True, track_running_stats=True)
              )
            )
            (stochastic_depth): StochasticDepth(p=0.16153846153846155, mode=row)
          )
          (4): MBConv(
            (block): Sequential(
              (0): Conv2dNormActivation(
                (0): Conv2d(232, 1392, kernel_size=(1, 1), stride=(1, 1), bias=False)
                (1): BatchNorm2d(1392, eps=1e-05, momentum=0.1, affine=True, track_running_stats=True)
                (2): SiLU(inplace=True)
              )
              (1): Conv2dNormActivation(
                (0): Conv2d(1392, 1392, kernel_size=(5, 5), stride=(1, 1), padding=(2, 2), groups=1392, bias=False)
                (1): BatchNorm2d(1392, eps=1e-05, momentum=0.1, affine=True, track_running_stats=True)
                (2): SiLU(inplace=True)
              )
              (2): SqueezeExcitation(
                (avgpool): AdaptiveAvgPool2d(output_size=1)
                (fc1): Conv2d(1392, 58, kernel_size=(1, 1), stride=(1, 1))
                (fc2): Conv2d(58, 1392, kernel_size=(1, 1), stride=(1, 1))
                (activation): SiLU(inplace=True)
                (scale_activation): Sigmoid()
              )
              (3): Conv2dNormActivation(
                (0): Conv2d(1392, 232, kernel_size=(1, 1), stride=(1, 1), bias=False)
                (1): BatchNorm2d(232, eps=1e-05, momentum=0.1, affine=True, track_running_stats=True)
              )
            )
            (stochastic_depth): StochasticDepth(p=0.16923076923076924, mode=row)
          )
          (5): MBConv(
            (block): Sequential(
              (0): Conv2dNormActivation(
                (0): Conv2d(232, 1392, kernel_size=(1, 1), stride=(1, 1), bias=False)
                (1): BatchNorm2d(1392, eps=1e-05, momentum=0.1, affine=True, track_running_stats=True)
                (2): SiLU(inplace=True)
              )
              (1): Conv2dNormActivation(
                (0): Conv2d(1392, 1392, kernel_size=(5, 5), stride=(1, 1), padding=(2, 2), groups=1392, bias=False)
                (1): BatchNorm2d(1392, eps=1e-05, momentum=0.1, affine=True, track_running_stats=True)
                (2): SiLU(inplace=True)
              )
              (2): SqueezeExcitation(
                (avgpool): AdaptiveAvgPool2d(output_size=1)
                (fc1): Conv2d(1392, 58, kernel_size=(1, 1), stride=(1, 1))
                (fc2): Conv2d(58, 1392, kernel_size=(1, 1), stride=(1, 1))
                (activation): SiLU(inplace=True)
                (scale_activation): Sigmoid()
              )
              (3): Conv2dNormActivation(
                (0): Conv2d(1392, 232, kernel_size=(1, 1), stride=(1, 1), bias=False)
                (1): BatchNorm2d(232, eps=1e-05, momentum=0.1, affine=True, track_running_stats=True)
              )
            )
            (stochastic_depth): StochasticDepth(p=0.17692307692307693, mode=row)
          )
        )
        (7): Sequential(
          (0): MBConv(
            (block): Sequential(
              (0): Conv2dNormActivation(
                (0): Conv2d(232, 1392, kernel_size=(1, 1), stride=(1, 1), bias=False)
                (1): BatchNorm2d(1392, eps=1e-05, momentum=0.1, affine=True, track_running_stats=True)
                (2): SiLU(inplace=True)
              )
              (1): Conv2dNormActivation(
                (0): Conv2d(1392, 1392, kernel_size=(3, 3), stride=(1, 1), padding=(1, 1), groups=1392, bias=False)
                (1): BatchNorm2d(1392, eps=1e-05, momentum=0.1, affine=True, track_running_stats=True)
                (2): SiLU(inplace=True)
              )
              (2): SqueezeExcitation(
                (avgpool): AdaptiveAvgPool2d(output_size=1)
                (fc1): Conv2d(1392, 58, kernel_size=(1, 1), stride=(1, 1))
                (fc2): Conv2d(58, 1392, kernel_size=(1, 1), stride=(1, 1))
                (activation): SiLU(inplace=True)
                (scale_activation): Sigmoid()
              )
              (3): Conv2dNormActivation(
                (0): Conv2d(1392, 384, kernel_size=(1, 1), stride=(1, 1), bias=False)
                (1): BatchNorm2d(384, eps=1e-05, momentum=0.1, affine=True, track_running_stats=True)
              )
            )
            (stochastic_depth): StochasticDepth(p=0.18461538461538465, mode=row)
          )
          (1): MBConv(
            (block): Sequential(
              (0): Conv2dNormActivation(
                (0): Conv2d(384, 2304, kernel_size=(1, 1), stride=(1, 1), bias=False)
                (1): BatchNorm2d(2304, eps=1e-05, momentum=0.1, affine=True, track_running_stats=True)
                (2): SiLU(inplace=True)
              )
              (1): Conv2dNormActivation(
                (0): Conv2d(2304, 2304, kernel_size=(3, 3), stride=(1, 1), padding=(1, 1), groups=2304, bias=False)
                (1): BatchNorm2d(2304, eps=1e-05, momentum=0.1, affine=True, track_running_stats=True)
                (2): SiLU(inplace=True)
              )
              (2): SqueezeExcitation(
                (avgpool): AdaptiveAvgPool2d(output_size=1)
                (fc1): Conv2d(2304, 96, kernel_size=(1, 1), stride=(1, 1))
                (fc2): Conv2d(96, 2304, kernel_size=(1, 1), stride=(1, 1))
                (activation): SiLU(inplace=True)
                (scale_activation): Sigmoid()
              )
              (3): Conv2dNormActivation(
                (0): Conv2d(2304, 384, kernel_size=(1, 1), stride=(1, 1), bias=False)
                (1): BatchNorm2d(384, eps=1e-05, momentum=0.1, affine=True, track_running_stats=True)
              )
            )
            (stochastic_depth): StochasticDepth(p=0.19230769230769232, mode=row)
          )
        )
        (8): Conv2dNormActivation(
          (0): Conv2d(384, 1536, kernel_size=(1, 1), stride=(1, 1), bias=False)
          (1): BatchNorm2d(1536, eps=1e-05, momentum=0.1, affine=True, track_running_stats=True)
          (2): SiLU(inplace=True)
        )
      )
      (avgpool): AdaptiveAvgPool2d(output_size=1)
      (classifier): Identity()
    )
    (attention): Sequential(
      (0): Conv2d(1536, 1, kernel_size=(1, 1), stride=(1, 1))
      (1): Sigmoid()
    )
    (feature_extractor): Sequential(
      (0): Linear(in_features=1536, out_features=1024, bias=True)
      (1): LayerNorm((1024,), eps=1e-05, elementwise_affine=True)
      (2): GELU(approximate='none')
      (3): Dropout(p=0.2, inplace=False)
      (4): Linear(in_features=1024, out_features=512, bias=True)
      (5): LayerNorm((512,), eps=1e-05, elementwise_affine=True)
      (6): GELU(approximate='none')
      (7): Dropout(p=0.2, inplace=False)
      (8): Linear(in_features=512, out_features=256, bias=True)
      (9): LayerNorm((256,), eps=1e-05, elementwise_affine=True)
      (10): GELU(approximate='none')
      (11): Dropout(p=0.1, inplace=False)
    )
    (classifier): Sequential(
      (0): Linear(in_features=256, out_features=7, bias=True)
    )
  )
  (melanoma_model): ModifiedMelanomaClassifier(
    (efficientnet): EfficientNet(
      (features): Sequential(
        (0): Conv2dNormActivation(
          (0): Conv2d(3, 40, kernel_size=(3, 3), stride=(2, 2), padding=(1, 1), bias=False)
          (1): BatchNorm2d(40, eps=1e-05, momentum=0.1, affine=True, track_running_stats=True)
          (2): SiLU(inplace=True)
        )
        (1): Sequential(
          (0): MBConv(
            (block): Sequential(
              (0): Conv2dNormActivation(
                (0): Conv2d(40, 40, kernel_size=(3, 3), stride=(1, 1), padding=(1, 1), groups=40, bias=False)
                (1): BatchNorm2d(40, eps=1e-05, momentum=0.1, affine=True, track_running_stats=True)
                (2): SiLU(inplace=True)
              )
              (1): SqueezeExcitation(
                (avgpool): AdaptiveAvgPool2d(output_size=1)
                (fc1): Conv2d(40, 10, kernel_size=(1, 1), stride=(1, 1))
                (fc2): Conv2d(10, 40, kernel_size=(1, 1), stride=(1, 1))
                (activation): SiLU(inplace=True)
                (scale_activation): Sigmoid()
              )
              (2): Conv2dNormActivation(
                (0): Conv2d(40, 24, kernel_size=(1, 1), stride=(1, 1), bias=False)
                (1): BatchNorm2d(24, eps=1e-05, momentum=0.1, affine=True, track_running_stats=True)
              )
            )
            (stochastic_depth): StochasticDepth(p=0.0, mode=row)
          )
          (1): MBConv(
            (block): Sequential(
              (0): Conv2dNormActivation(
                (0): Conv2d(24, 24, kernel_size=(3, 3), stride=(1, 1), padding=(1, 1), groups=24, bias=False)
                (1): BatchNorm2d(24, eps=1e-05, momentum=0.1, affine=True, track_running_stats=True)
                (2): SiLU(inplace=True)
              )
              (1): SqueezeExcitation(
                (avgpool): AdaptiveAvgPool2d(output_size=1)
                (fc1): Conv2d(24, 6, kernel_size=(1, 1), stride=(1, 1))
                (fc2): Conv2d(6, 24, kernel_size=(1, 1), stride=(1, 1))
                (activation): SiLU(inplace=True)
                (scale_activation): Sigmoid()
              )
              (2): Conv2dNormActivation(
                (0): Conv2d(24, 24, kernel_size=(1, 1), stride=(1, 1), bias=False)
                (1): BatchNorm2d(24, eps=1e-05, momentum=0.1, affine=True, track_running_stats=True)
              )
            )
            (stochastic_depth): StochasticDepth(p=0.007692307692307693, mode=row)
          )
        )
        (2): Sequential(
          (0): MBConv(
            (block): Sequential(
              (0): Conv2dNormActivation(
                (0): Conv2d(24, 144, kernel_size=(1, 1), stride=(1, 1), bias=False)
                (1): BatchNorm2d(144, eps=1e-05, momentum=0.1, affine=True, track_running_stats=True)
                (2): SiLU(inplace=True)
              )
              (1): Conv2dNormActivation(
                (0): Conv2d(144, 144, kernel_size=(3, 3), stride=(2, 2), padding=(1, 1), groups=144, bias=False)
                (1): BatchNorm2d(144, eps=1e-05, momentum=0.1, affine=True, track_running_stats=True)
                (2): SiLU(inplace=True)
              )
              (2): SqueezeExcitation(
                (avgpool): AdaptiveAvgPool2d(output_size=1)
                (fc1): Conv2d(144, 6, kernel_size=(1, 1), stride=(1, 1))
                (fc2): Conv2d(6, 144, kernel_size=(1, 1), stride=(1, 1))
                (activation): SiLU(inplace=True)
                (scale_activation): Sigmoid()
              )
              (3): Conv2dNormActivation(
                (0): Conv2d(144, 32, kernel_size=(1, 1), stride=(1, 1), bias=False)
                (1): BatchNorm2d(32, eps=1e-05, momentum=0.1, affine=True, track_running_stats=True)
              )
            )
            (stochastic_depth): StochasticDepth(p=0.015384615384615385, mode=row)
          )
          (1): MBConv(
            (block): Sequential(
              (0): Conv2dNormActivation(
                (0): Conv2d(32, 192, kernel_size=(1, 1), stride=(1, 1), bias=False)
                (1): BatchNorm2d(192, eps=1e-05, momentum=0.1, affine=True, track_running_stats=True)
                (2): SiLU(inplace=True)
              )
              (1): Conv2dNormActivation(
                (0): Conv2d(192, 192, kernel_size=(3, 3), stride=(1, 1), padding=(1, 1), groups=192, bias=False)
                (1): BatchNorm2d(192, eps=1e-05, momentum=0.1, affine=True, track_running_stats=True)
                (2): SiLU(inplace=True)
              )
              (2): SqueezeExcitation(
                (avgpool): AdaptiveAvgPool2d(output_size=1)
                (fc1): Conv2d(192, 8, kernel_size=(1, 1), stride=(1, 1))
                (fc2): Conv2d(8, 192, kernel_size=(1, 1), stride=(1, 1))
                (activation): SiLU(inplace=True)
                (scale_activation): Sigmoid()
              )
              (3): Conv2dNormActivation(
                (0): Conv2d(192, 32, kernel_size=(1, 1), stride=(1, 1), bias=False)
                (1): BatchNorm2d(32, eps=1e-05, momentum=0.1, affine=True, track_running_stats=True)
              )
            )
            (stochastic_depth): StochasticDepth(p=0.02307692307692308, mode=row)
          )
          (2): MBConv(
            (block): Sequential(
              (0): Conv2dNormActivation(
                (0): Conv2d(32, 192, kernel_size=(1, 1), stride=(1, 1), bias=False)
                (1): BatchNorm2d(192, eps=1e-05, momentum=0.1, affine=True, track_running_stats=True)
                (2): SiLU(inplace=True)
              )
              (1): Conv2dNormActivation(
                (0): Conv2d(192, 192, kernel_size=(3, 3), stride=(1, 1), padding=(1, 1), groups=192, bias=False)
                (1): BatchNorm2d(192, eps=1e-05, momentum=0.1, affine=True, track_running_stats=True)
                (2): SiLU(inplace=True)
              )
              (2): SqueezeExcitation(
                (avgpool): AdaptiveAvgPool2d(output_size=1)
                (fc1): Conv2d(192, 8, kernel_size=(1, 1), stride=(1, 1))
                (fc2): Conv2d(8, 192, kernel_size=(1, 1), stride=(1, 1))
                (activation): SiLU(inplace=True)
                (scale_activation): Sigmoid()
              )
              (3): Conv2dNormActivation(
                (0): Conv2d(192, 32, kernel_size=(1, 1), stride=(1, 1), bias=False)
                (1): BatchNorm2d(32, eps=1e-05, momentum=0.1, affine=True, track_running_stats=True)
              )
            )
            (stochastic_depth): StochasticDepth(p=0.03076923076923077, mode=row)
          )
        )
        (3): Sequential(
          (0): MBConv(
            (block): Sequential(
              (0): Conv2dNormActivation(
                (0): Conv2d(32, 192, kernel_size=(1, 1), stride=(1, 1), bias=False)
                (1): BatchNorm2d(192, eps=1e-05, momentum=0.1, affine=True, track_running_stats=True)
                (2): SiLU(inplace=True)
              )
              (1): Conv2dNormActivation(
                (0): Conv2d(192, 192, kernel_size=(5, 5), stride=(2, 2), padding=(2, 2), groups=192, bias=False)
                (1): BatchNorm2d(192, eps=1e-05, momentum=0.1, affine=True, track_running_stats=True)
                (2): SiLU(inplace=True)
              )
              (2): SqueezeExcitation(
                (avgpool): AdaptiveAvgPool2d(output_size=1)
                (fc1): Conv2d(192, 8, kernel_size=(1, 1), stride=(1, 1))
                (fc2): Conv2d(8, 192, kernel_size=(1, 1), stride=(1, 1))
                (activation): SiLU(inplace=True)
                (scale_activation): Sigmoid()
              )
              (3): Conv2dNormActivation(
                (0): Conv2d(192, 48, kernel_size=(1, 1), stride=(1, 1), bias=False)
                (1): BatchNorm2d(48, eps=1e-05, momentum=0.1, affine=True, track_running_stats=True)
              )
            )
            (stochastic_depth): StochasticDepth(p=0.038461538461538464, mode=row)
          )
          (1): MBConv(
            (block): Sequential(
              (0): Conv2dNormActivation(
                (0): Conv2d(48, 288, kernel_size=(1, 1), stride=(1, 1), bias=False)
                (1): BatchNorm2d(288, eps=1e-05, momentum=0.1, affine=True, track_running_stats=True)
                (2): SiLU(inplace=True)
              )
              (1): Conv2dNormActivation(
                (0): Conv2d(288, 288, kernel_size=(5, 5), stride=(1, 1), padding=(2, 2), groups=288, bias=False)
                (1): BatchNorm2d(288, eps=1e-05, momentum=0.1, affine=True, track_running_stats=True)
                (2): SiLU(inplace=True)
              )
              (2): SqueezeExcitation(
                (avgpool): AdaptiveAvgPool2d(output_size=1)
                (fc1): Conv2d(288, 12, kernel_size=(1, 1), stride=(1, 1))
                (fc2): Conv2d(12, 288, kernel_size=(1, 1), stride=(1, 1))
                (activation): SiLU(inplace=True)
                (scale_activation): Sigmoid()
              )
              (3): Conv2dNormActivation(
                (0): Conv2d(288, 48, kernel_size=(1, 1), stride=(1, 1), bias=False)
                (1): BatchNorm2d(48, eps=1e-05, momentum=0.1, affine=True, track_running_stats=True)
              )
            )
            (stochastic_depth): StochasticDepth(p=0.04615384615384616, mode=row)
          )
          (2): MBConv(
            (block): Sequential(
              (0): Conv2dNormActivation(
                (0): Conv2d(48, 288, kernel_size=(1, 1), stride=(1, 1), bias=False)
                (1): BatchNorm2d(288, eps=1e-05, momentum=0.1, affine=True, track_running_stats=True)
                (2): SiLU(inplace=True)
              )
              (1): Conv2dNormActivation(
                (0): Conv2d(288, 288, kernel_size=(5, 5), stride=(1, 1), padding=(2, 2), groups=288, bias=False)
                (1): BatchNorm2d(288, eps=1e-05, momentum=0.1, affine=True, track_running_stats=True)
                (2): SiLU(inplace=True)
              )
              (2): SqueezeExcitation(
                (avgpool): AdaptiveAvgPool2d(output_size=1)
                (fc1): Conv2d(288, 12, kernel_size=(1, 1), stride=(1, 1))
                (fc2): Conv2d(12, 288, kernel_size=(1, 1), stride=(1, 1))
                (activation): SiLU(inplace=True)
                (scale_activation): Sigmoid()
              )
              (3): Conv2dNormActivation(
                (0): Conv2d(288, 48, kernel_size=(1, 1), stride=(1, 1), bias=False)
                (1): BatchNorm2d(48, eps=1e-05, momentum=0.1, affine=True, track_running_stats=True)
              )
            )
            (stochastic_depth): StochasticDepth(p=0.05384615384615385, mode=row)
          )
        )
        (4): Sequential(
          (0): MBConv(
            (block): Sequential(
              (0): Conv2dNormActivation(
                (0): Conv2d(48, 288, kernel_size=(1, 1), stride=(1, 1), bias=False)
                (1): BatchNorm2d(288, eps=1e-05, momentum=0.1, affine=True, track_running_stats=True)
                (2): SiLU(inplace=True)
              )
              (1): Conv2dNormActivation(
                (0): Conv2d(288, 288, kernel_size=(3, 3), stride=(2, 2), padding=(1, 1), groups=288, bias=False)
                (1): BatchNorm2d(288, eps=1e-05, momentum=0.1, affine=True, track_running_stats=True)
                (2): SiLU(inplace=True)
              )
              (2): SqueezeExcitation(
                (avgpool): AdaptiveAvgPool2d(output_size=1)
                (fc1): Conv2d(288, 12, kernel_size=(1, 1), stride=(1, 1))
                (fc2): Conv2d(12, 288, kernel_size=(1, 1), stride=(1, 1))
                (activation): SiLU(inplace=True)
                (scale_activation): Sigmoid()
              )
              (3): Conv2dNormActivation(
                (0): Conv2d(288, 96, kernel_size=(1, 1), stride=(1, 1), bias=False)
                (1): BatchNorm2d(96, eps=1e-05, momentum=0.1, affine=True, track_running_stats=True)
              )
            )
            (stochastic_depth): StochasticDepth(p=0.06153846153846154, mode=row)
          )
          (1): MBConv(
            (block): Sequential(
              (0): Conv2dNormActivation(
                (0): Conv2d(96, 576, kernel_size=(1, 1), stride=(1, 1), bias=False)
                (1): BatchNorm2d(576, eps=1e-05, momentum=0.1, affine=True, track_running_stats=True)
                (2): SiLU(inplace=True)
              )
              (1): Conv2dNormActivation(
                (0): Conv2d(576, 576, kernel_size=(3, 3), stride=(1, 1), padding=(1, 1), groups=576, bias=False)
                (1): BatchNorm2d(576, eps=1e-05, momentum=0.1, affine=True, track_running_stats=True)
                (2): SiLU(inplace=True)
              )
              (2): SqueezeExcitation(
                (avgpool): AdaptiveAvgPool2d(output_size=1)
                (fc1): Conv2d(576, 24, kernel_size=(1, 1), stride=(1, 1))
                (fc2): Conv2d(24, 576, kernel_size=(1, 1), stride=(1, 1))
                (activation): SiLU(inplace=True)
                (scale_activation): Sigmoid()
              )
              (3): Conv2dNormActivation(
                (0): Conv2d(576, 96, kernel_size=(1, 1), stride=(1, 1), bias=False)
                (1): BatchNorm2d(96, eps=1e-05, momentum=0.1, affine=True, track_running_stats=True)
              )
            )
            (stochastic_depth): StochasticDepth(p=0.06923076923076923, mode=row)
          )
          (2): MBConv(
            (block): Sequential(
              (0): Conv2dNormActivation(
                (0): Conv2d(96, 576, kernel_size=(1, 1), stride=(1, 1), bias=False)
                (1): BatchNorm2d(576, eps=1e-05, momentum=0.1, affine=True, track_running_stats=True)
                (2): SiLU(inplace=True)
              )
              (1): Conv2dNormActivation(
                (0): Conv2d(576, 576, kernel_size=(3, 3), stride=(1, 1), padding=(1, 1), groups=576, bias=False)
                (1): BatchNorm2d(576, eps=1e-05, momentum=0.1, affine=True, track_running_stats=True)
                (2): SiLU(inplace=True)
              )
              (2): SqueezeExcitation(
                (avgpool): AdaptiveAvgPool2d(output_size=1)
                (fc1): Conv2d(576, 24, kernel_size=(1, 1), stride=(1, 1))
                (fc2): Conv2d(24, 576, kernel_size=(1, 1), stride=(1, 1))
                (activation): SiLU(inplace=True)
                (scale_activation): Sigmoid()
              )
              (3): Conv2dNormActivation(
                (0): Conv2d(576, 96, kernel_size=(1, 1), stride=(1, 1), bias=False)
                (1): BatchNorm2d(96, eps=1e-05, momentum=0.1, affine=True, track_running_stats=True)
              )
            )
            (stochastic_depth): StochasticDepth(p=0.07692307692307693, mode=row)
          )
          (3): MBConv(
            (block): Sequential(
              (0): Conv2dNormActivation(
                (0): Conv2d(96, 576, kernel_size=(1, 1), stride=(1, 1), bias=False)
                (1): BatchNorm2d(576, eps=1e-05, momentum=0.1, affine=True, track_running_stats=True)
                (2): SiLU(inplace=True)
              )
              (1): Conv2dNormActivation(
                (0): Conv2d(576, 576, kernel_size=(3, 3), stride=(1, 1), padding=(1, 1), groups=576, bias=False)
                (1): BatchNorm2d(576, eps=1e-05, momentum=0.1, affine=True, track_running_stats=True)
                (2): SiLU(inplace=True)
              )
              (2): SqueezeExcitation(
                (avgpool): AdaptiveAvgPool2d(output_size=1)
                (fc1): Conv2d(576, 24, kernel_size=(1, 1), stride=(1, 1))
                (fc2): Conv2d(24, 576, kernel_size=(1, 1), stride=(1, 1))
                (activation): SiLU(inplace=True)
                (scale_activation): Sigmoid()
              )
              (3): Conv2dNormActivation(
                (0): Conv2d(576, 96, kernel_size=(1, 1), stride=(1, 1), bias=False)
                (1): BatchNorm2d(96, eps=1e-05, momentum=0.1, affine=True, track_running_stats=True)
              )
            )
            (stochastic_depth): StochasticDepth(p=0.08461538461538462, mode=row)
          )
          (4): MBConv(
            (block): Sequential(
              (0): Conv2dNormActivation(
                (0): Conv2d(96, 576, kernel_size=(1, 1), stride=(1, 1), bias=False)
                (1): BatchNorm2d(576, eps=1e-05, momentum=0.1, affine=True, track_running_stats=True)
                (2): SiLU(inplace=True)
              )
              (1): Conv2dNormActivation(
                (0): Conv2d(576, 576, kernel_size=(3, 3), stride=(1, 1), padding=(1, 1), groups=576, bias=False)
                (1): BatchNorm2d(576, eps=1e-05, momentum=0.1, affine=True, track_running_stats=True)
                (2): SiLU(inplace=True)
              )
              (2): SqueezeExcitation(
                (avgpool): AdaptiveAvgPool2d(output_size=1)
                (fc1): Conv2d(576, 24, kernel_size=(1, 1), stride=(1, 1))
                (fc2): Conv2d(24, 576, kernel_size=(1, 1), stride=(1, 1))
                (activation): SiLU(inplace=True)
                (scale_activation): Sigmoid()
              )
              (3): Conv2dNormActivation(
                (0): Conv2d(576, 96, kernel_size=(1, 1), stride=(1, 1), bias=False)
                (1): BatchNorm2d(96, eps=1e-05, momentum=0.1, affine=True, track_running_stats=True)
              )
            )
            (stochastic_depth): StochasticDepth(p=0.09230769230769233, mode=row)
          )
        )
        (5): Sequential(
          (0): MBConv(
            (block): Sequential(
              (0): Conv2dNormActivation(
                (0): Conv2d(96, 576, kernel_size=(1, 1), stride=(1, 1), bias=False)
                (1): BatchNorm2d(576, eps=1e-05, momentum=0.1, affine=True, track_running_stats=True)
                (2): SiLU(inplace=True)
              )
              (1): Conv2dNormActivation(
                (0): Conv2d(576, 576, kernel_size=(5, 5), stride=(1, 1), padding=(2, 2), groups=576, bias=False)
                (1): BatchNorm2d(576, eps=1e-05, momentum=0.1, affine=True, track_running_stats=True)
                (2): SiLU(inplace=True)
              )
              (2): SqueezeExcitation(
                (avgpool): AdaptiveAvgPool2d(output_size=1)
                (fc1): Conv2d(576, 24, kernel_size=(1, 1), stride=(1, 1))
                (fc2): Conv2d(24, 576, kernel_size=(1, 1), stride=(1, 1))
                (activation): SiLU(inplace=True)
                (scale_activation): Sigmoid()
              )
              (3): Conv2dNormActivation(
                (0): Conv2d(576, 136, kernel_size=(1, 1), stride=(1, 1), bias=False)
                (1): BatchNorm2d(136, eps=1e-05, momentum=0.1, affine=True, track_running_stats=True)
              )
            )
            (stochastic_depth): StochasticDepth(p=0.1, mode=row)
          )
          (1): MBConv(
            (block): Sequential(
              (0): Conv2dNormActivation(
                (0): Conv2d(136, 816, kernel_size=(1, 1), stride=(1, 1), bias=False)
                (1): BatchNorm2d(816, eps=1e-05, momentum=0.1, affine=True, track_running_stats=True)
                (2): SiLU(inplace=True)
              )
              (1): Conv2dNormActivation(
                (0): Conv2d(816, 816, kernel_size=(5, 5), stride=(1, 1), padding=(2, 2), groups=816, bias=False)
                (1): BatchNorm2d(816, eps=1e-05, momentum=0.1, affine=True, track_running_stats=True)
                (2): SiLU(inplace=True)
              )
              (2): SqueezeExcitation(
                (avgpool): AdaptiveAvgPool2d(output_size=1)
                (fc1): Conv2d(816, 34, kernel_size=(1, 1), stride=(1, 1))
                (fc2): Conv2d(34, 816, kernel_size=(1, 1), stride=(1, 1))
                (activation): SiLU(inplace=True)
                (scale_activation): Sigmoid()
              )
              (3): Conv2dNormActivation(
                (0): Conv2d(816, 136, kernel_size=(1, 1), stride=(1, 1), bias=False)
                (1): BatchNorm2d(136, eps=1e-05, momentum=0.1, affine=True, track_running_stats=True)
              )
            )
            (stochastic_depth): StochasticDepth(p=0.1076923076923077, mode=row)
          )
          (2): MBConv(
            (block): Sequential(
              (0): Conv2dNormActivation(
                (0): Conv2d(136, 816, kernel_size=(1, 1), stride=(1, 1), bias=False)
                (1): BatchNorm2d(816, eps=1e-05, momentum=0.1, affine=True, track_running_stats=True)
                (2): SiLU(inplace=True)
              )
              (1): Conv2dNormActivation(
                (0): Conv2d(816, 816, kernel_size=(5, 5), stride=(1, 1), padding=(2, 2), groups=816, bias=False)
                (1): BatchNorm2d(816, eps=1e-05, momentum=0.1, affine=True, track_running_stats=True)
                (2): SiLU(inplace=True)
              )
              (2): SqueezeExcitation(
                (avgpool): AdaptiveAvgPool2d(output_size=1)
                (fc1): Conv2d(816, 34, kernel_size=(1, 1), stride=(1, 1))
                (fc2): Conv2d(34, 816, kernel_size=(1, 1), stride=(1, 1))
                (activation): SiLU(inplace=True)
                (scale_activation): Sigmoid()
              )
              (3): Conv2dNormActivation(
                (0): Conv2d(816, 136, kernel_size=(1, 1), stride=(1, 1), bias=False)
                (1): BatchNorm2d(136, eps=1e-05, momentum=0.1, affine=True, track_running_stats=True)
              )
            )
            (stochastic_depth): StochasticDepth(p=0.11538461538461539, mode=row)
          )
          (3): MBConv(
            (block): Sequential(
              (0): Conv2dNormActivation(
                (0): Conv2d(136, 816, kernel_size=(1, 1), stride=(1, 1), bias=False)
                (1): BatchNorm2d(816, eps=1e-05, momentum=0.1, affine=True, track_running_stats=True)
                (2): SiLU(inplace=True)
              )
              (1): Conv2dNormActivation(
                (0): Conv2d(816, 816, kernel_size=(5, 5), stride=(1, 1), padding=(2, 2), groups=816, bias=False)
                (1): BatchNorm2d(816, eps=1e-05, momentum=0.1, affine=True, track_running_stats=True)
                (2): SiLU(inplace=True)
              )
              (2): SqueezeExcitation(
                (avgpool): AdaptiveAvgPool2d(output_size=1)
                (fc1): Conv2d(816, 34, kernel_size=(1, 1), stride=(1, 1))
                (fc2): Conv2d(34, 816, kernel_size=(1, 1), stride=(1, 1))
                (activation): SiLU(inplace=True)
                (scale_activation): Sigmoid()
              )
              (3): Conv2dNormActivation(
                (0): Conv2d(816, 136, kernel_size=(1, 1), stride=(1, 1), bias=False)
                (1): BatchNorm2d(136, eps=1e-05, momentum=0.1, affine=True, track_running_stats=True)
              )
            )
            (stochastic_depth): StochasticDepth(p=0.12307692307692308, mode=row)
          )
          (4): MBConv(
            (block): Sequential(
              (0): Conv2dNormActivation(
                (0): Conv2d(136, 816, kernel_size=(1, 1), stride=(1, 1), bias=False)
                (1): BatchNorm2d(816, eps=1e-05, momentum=0.1, affine=True, track_running_stats=True)
                (2): SiLU(inplace=True)
              )
              (1): Conv2dNormActivation(
                (0): Conv2d(816, 816, kernel_size=(5, 5), stride=(1, 1), padding=(2, 2), groups=816, bias=False)
                (1): BatchNorm2d(816, eps=1e-05, momentum=0.1, affine=True, track_running_stats=True)
                (2): SiLU(inplace=True)
              )
              (2): SqueezeExcitation(
                (avgpool): AdaptiveAvgPool2d(output_size=1)
                (fc1): Conv2d(816, 34, kernel_size=(1, 1), stride=(1, 1))
                (fc2): Conv2d(34, 816, kernel_size=(1, 1), stride=(1, 1))
                (activation): SiLU(inplace=True)
                (scale_activation): Sigmoid()
              )
              (3): Conv2dNormActivation(
                (0): Conv2d(816, 136, kernel_size=(1, 1), stride=(1, 1), bias=False)
                (1): BatchNorm2d(136, eps=1e-05, momentum=0.1, affine=True, track_running_stats=True)
              )
            )
            (stochastic_depth): StochasticDepth(p=0.13076923076923078, mode=row)
          )
        )
        (6): Sequential(
          (0): MBConv(
            (block): Sequential(
              (0): Conv2dNormActivation(
                (0): Conv2d(136, 816, kernel_size=(1, 1), stride=(1, 1), bias=False)
                (1): BatchNorm2d(816, eps=1e-05, momentum=0.1, affine=True, track_running_stats=True)
                (2): SiLU(inplace=True)
              )
              (1): Conv2dNormActivation(
                (0): Conv2d(816, 816, kernel_size=(5, 5), stride=(2, 2), padding=(2, 2), groups=816, bias=False)
                (1): BatchNorm2d(816, eps=1e-05, momentum=0.1, affine=True, track_running_stats=True)
                (2): SiLU(inplace=True)
              )
              (2): SqueezeExcitation(
                (avgpool): AdaptiveAvgPool2d(output_size=1)
                (fc1): Conv2d(816, 34, kernel_size=(1, 1), stride=(1, 1))
                (fc2): Conv2d(34, 816, kernel_size=(1, 1), stride=(1, 1))
                (activation): SiLU(inplace=True)
                (scale_activation): Sigmoid()
              )
              (3): Conv2dNormActivation(
                (0): Conv2d(816, 232, kernel_size=(1, 1), stride=(1, 1), bias=False)
                (1): BatchNorm2d(232, eps=1e-05, momentum=0.1, affine=True, track_running_stats=True)
              )
            )
            (stochastic_depth): StochasticDepth(p=0.13846153846153847, mode=row)
          )
          (1): MBConv(
            (block): Sequential(
              (0): Conv2dNormActivation(
                (0): Conv2d(232, 1392, kernel_size=(1, 1), stride=(1, 1), bias=False)
                (1): BatchNorm2d(1392, eps=1e-05, momentum=0.1, affine=True, track_running_stats=True)
                (2): SiLU(inplace=True)
              )
              (1): Conv2dNormActivation(
                (0): Conv2d(1392, 1392, kernel_size=(5, 5), stride=(1, 1), padding=(2, 2), groups=1392, bias=False)
                (1): BatchNorm2d(1392, eps=1e-05, momentum=0.1, affine=True, track_running_stats=True)
                (2): SiLU(inplace=True)
              )
              (2): SqueezeExcitation(
                (avgpool): AdaptiveAvgPool2d(output_size=1)
                (fc1): Conv2d(1392, 58, kernel_size=(1, 1), stride=(1, 1))
                (fc2): Conv2d(58, 1392, kernel_size=(1, 1), stride=(1, 1))
                (activation): SiLU(inplace=True)
                (scale_activation): Sigmoid()
              )
              (3): Conv2dNormActivation(
                (0): Conv2d(1392, 232, kernel_size=(1, 1), stride=(1, 1), bias=False)
                (1): BatchNorm2d(232, eps=1e-05, momentum=0.1, affine=True, track_running_stats=True)
              )
            )
            (stochastic_depth): StochasticDepth(p=0.14615384615384616, mode=row)
          )
          (2): MBConv(
            (block): Sequential(
              (0): Conv2dNormActivation(
                (0): Conv2d(232, 1392, kernel_size=(1, 1), stride=(1, 1), bias=False)
                (1): BatchNorm2d(1392, eps=1e-05, momentum=0.1, affine=True, track_running_stats=True)
                (2): SiLU(inplace=True)
              )
              (1): Conv2dNormActivation(
                (0): Conv2d(1392, 1392, kernel_size=(5, 5), stride=(1, 1), padding=(2, 2), groups=1392, bias=False)
                (1): BatchNorm2d(1392, eps=1e-05, momentum=0.1, affine=True, track_running_stats=True)
                (2): SiLU(inplace=True)
              )
              (2): SqueezeExcitation(
                (avgpool): AdaptiveAvgPool2d(output_size=1)
                (fc1): Conv2d(1392, 58, kernel_size=(1, 1), stride=(1, 1))
                (fc2): Conv2d(58, 1392, kernel_size=(1, 1), stride=(1, 1))
                (activation): SiLU(inplace=True)
                (scale_activation): Sigmoid()
              )
              (3): Conv2dNormActivation(
                (0): Conv2d(1392, 232, kernel_size=(1, 1), stride=(1, 1), bias=False)
                (1): BatchNorm2d(232, eps=1e-05, momentum=0.1, affine=True, track_running_stats=True)
              )
            )
            (stochastic_depth): StochasticDepth(p=0.15384615384615385, mode=row)
          )
          (3): MBConv(
            (block): Sequential(
              (0): Conv2dNormActivation(
                (0): Conv2d(232, 1392, kernel_size=(1, 1), stride=(1, 1), bias=False)
                (1): BatchNorm2d(1392, eps=1e-05, momentum=0.1, affine=True, track_running_stats=True)
                (2): SiLU(inplace=True)
              )
              (1): Conv2dNormActivation(
                (0): Conv2d(1392, 1392, kernel_size=(5, 5), stride=(1, 1), padding=(2, 2), groups=1392, bias=False)
                (1): BatchNorm2d(1392, eps=1e-05, momentum=0.1, affine=True, track_running_stats=True)
                (2): SiLU(inplace=True)
              )
              (2): SqueezeExcitation(
                (avgpool): AdaptiveAvgPool2d(output_size=1)
                (fc1): Conv2d(1392, 58, kernel_size=(1, 1), stride=(1, 1))
                (fc2): Conv2d(58, 1392, kernel_size=(1, 1), stride=(1, 1))
                (activation): SiLU(inplace=True)
                (scale_activation): Sigmoid()
              )
              (3): Conv2dNormActivation(
                (0): Conv2d(1392, 232, kernel_size=(1, 1), stride=(1, 1), bias=False)
                (1): BatchNorm2d(232, eps=1e-05, momentum=0.1, affine=True, track_running_stats=True)
              )
            )
            (stochastic_depth): StochasticDepth(p=0.16153846153846155, mode=row)
          )
          (4): MBConv(
            (block): Sequential(
              (0): Conv2dNormActivation(
                (0): Conv2d(232, 1392, kernel_size=(1, 1), stride=(1, 1), bias=False)
                (1): BatchNorm2d(1392, eps=1e-05, momentum=0.1, affine=True, track_running_stats=True)
                (2): SiLU(inplace=True)
              )
              (1): Conv2dNormActivation(
                (0): Conv2d(1392, 1392, kernel_size=(5, 5), stride=(1, 1), padding=(2, 2), groups=1392, bias=False)
                (1): BatchNorm2d(1392, eps=1e-05, momentum=0.1, affine=True, track_running_stats=True)
                (2): SiLU(inplace=True)
              )
              (2): SqueezeExcitation(
                (avgpool): AdaptiveAvgPool2d(output_size=1)
                (fc1): Conv2d(1392, 58, kernel_size=(1, 1), stride=(1, 1))
                (fc2): Conv2d(58, 1392, kernel_size=(1, 1), stride=(1, 1))
                (activation): SiLU(inplace=True)
                (scale_activation): Sigmoid()
              )
              (3): Conv2dNormActivation(
                (0): Conv2d(1392, 232, kernel_size=(1, 1), stride=(1, 1), bias=False)
                (1): BatchNorm2d(232, eps=1e-05, momentum=0.1, affine=True, track_running_stats=True)
              )
            )
            (stochastic_depth): StochasticDepth(p=0.16923076923076924, mode=row)
          )
          (5): MBConv(
            (block): Sequential(
              (0): Conv2dNormActivation(
                (0): Conv2d(232, 1392, kernel_size=(1, 1), stride=(1, 1), bias=False)
                (1): BatchNorm2d(1392, eps=1e-05, momentum=0.1, affine=True, track_running_stats=True)
                (2): SiLU(inplace=True)
              )
              (1): Conv2dNormActivation(
                (0): Conv2d(1392, 1392, kernel_size=(5, 5), stride=(1, 1), padding=(2, 2), groups=1392, bias=False)
                (1): BatchNorm2d(1392, eps=1e-05, momentum=0.1, affine=True, track_running_stats=True)
                (2): SiLU(inplace=True)
              )
              (2): SqueezeExcitation(
                (avgpool): AdaptiveAvgPool2d(output_size=1)
                (fc1): Conv2d(1392, 58, kernel_size=(1, 1), stride=(1, 1))
                (fc2): Conv2d(58, 1392, kernel_size=(1, 1), stride=(1, 1))
                (activation): SiLU(inplace=True)
                (scale_activation): Sigmoid()
              )
              (3): Conv2dNormActivation(
                (0): Conv2d(1392, 232, kernel_size=(1, 1), stride=(1, 1), bias=False)
                (1): BatchNorm2d(232, eps=1e-05, momentum=0.1, affine=True, track_running_stats=True)
              )
            )
            (stochastic_depth): StochasticDepth(p=0.17692307692307693, mode=row)
          )
        )
        (7): Sequential(
          (0): MBConv(
            (block): Sequential(
              (0): Conv2dNormActivation(
                (0): Conv2d(232, 1392, kernel_size=(1, 1), stride=(1, 1), bias=False)
                (1): BatchNorm2d(1392, eps=1e-05, momentum=0.1, affine=True, track_running_stats=True)
                (2): SiLU(inplace=True)
              )
              (1): Conv2dNormActivation(
                (0): Conv2d(1392, 1392, kernel_size=(3, 3), stride=(1, 1), padding=(1, 1), groups=1392, bias=False)
                (1): BatchNorm2d(1392, eps=1e-05, momentum=0.1, affine=True, track_running_stats=True)
                (2): SiLU(inplace=True)
              )
              (2): SqueezeExcitation(
                (avgpool): AdaptiveAvgPool2d(output_size=1)
                (fc1): Conv2d(1392, 58, kernel_size=(1, 1), stride=(1, 1))
                (fc2): Conv2d(58, 1392, kernel_size=(1, 1), stride=(1, 1))
                (activation): SiLU(inplace=True)
                (scale_activation): Sigmoid()
              )
              (3): Conv2dNormActivation(
                (0): Conv2d(1392, 384, kernel_size=(1, 1), stride=(1, 1), bias=False)
                (1): BatchNorm2d(384, eps=1e-05, momentum=0.1, affine=True, track_running_stats=True)
              )
            )
            (stochastic_depth): StochasticDepth(p=0.18461538461538465, mode=row)
          )
          (1): MBConv(
            (block): Sequential(
              (0): Conv2dNormActivation(
                (0): Conv2d(384, 2304, kernel_size=(1, 1), stride=(1, 1), bias=False)
                (1): BatchNorm2d(2304, eps=1e-05, momentum=0.1, affine=True, track_running_stats=True)
                (2): SiLU(inplace=True)
              )
              (1): Conv2dNormActivation(
                (0): Conv2d(2304, 2304, kernel_size=(3, 3), stride=(1, 1), padding=(1, 1), groups=2304, bias=False)
                (1): BatchNorm2d(2304, eps=1e-05, momentum=0.1, affine=True, track_running_stats=True)
                (2): SiLU(inplace=True)
              )
              (2): SqueezeExcitation(
                (avgpool): AdaptiveAvgPool2d(output_size=1)
                (fc1): Conv2d(2304, 96, kernel_size=(1, 1), stride=(1, 1))
                (fc2): Conv2d(96, 2304, kernel_size=(1, 1), stride=(1, 1))
                (activation): SiLU(inplace=True)
                (scale_activation): Sigmoid()
              )
              (3): Conv2dNormActivation(
                (0): Conv2d(2304, 384, kernel_size=(1, 1), stride=(1, 1), bias=False)
                (1): BatchNorm2d(384, eps=1e-05, momentum=0.1, affine=True, track_running_stats=True)
              )
            )
            (stochastic_depth): StochasticDepth(p=0.19230769230769232, mode=row)
          )
        )
        (8): Conv2dNormActivation(
          (0): Conv2d(384, 1536, kernel_size=(1, 1), stride=(1, 1), bias=False)
          (1): BatchNorm2d(1536, eps=1e-05, momentum=0.1, affine=True, track_running_stats=True)
          (2): SiLU(inplace=True)
        )
      )
      (avgpool): AdaptiveAvgPool2d(output_size=1)
      (classifier): Sequential(
        (0): Dropout(p=0.2, inplace=False)
        (1): Linear(in_features=1536, out_features=128, bias=True)
        (2): ReLU()
        (3): Dropout(p=0.1, inplace=False)
        (4): Linear(in_features=128, out_features=1, bias=True)
      )
    )
  )
  (combined_classifier): Sequential(
    (0): Linear(in_features=384, out_features=256, bias=True)
    (1): ReLU()
    (2): Dropout(p=0.3, inplace=False)
    (3): Linear(in_features=256, out_features=128, bias=True)
    (4): ReLU()
    (5): Dropout(p=0.2, inplace=False)
    (6): Linear(in_features=128, out_features=1, bias=True)
  )
)

==================================================

2. SKIN TONE MODEL (FEATURE EXTRACTOR):
Backbone: EfficientNet(
  (features): Sequential(
    (0): Conv2dNormActivation(
      (0): Conv2d(3, 40, kernel_size=(3, 3), stride=(2, 2), padding=(1, 1), bias=False)
      (1): BatchNorm2d(40, eps=1e-05, momentum=0.1, affine=True, track_running_stats=True)
      (2): SiLU(inplace=True)
    )
    (1): Sequential(
      (0): MBConv(
        (block): Sequential(
          (0): Conv2dNormActivation(
            (0): Conv2d(40, 40, kernel_size=(3, 3), stride=(1, 1), padding=(1, 1), groups=40, bias=False)
            (1): BatchNorm2d(40, eps=1e-05, momentum=0.1, affine=True, track_running_stats=True)
            (2): SiLU(inplace=True)
          )
          (1): SqueezeExcitation(
            (avgpool): AdaptiveAvgPool2d(output_size=1)
            (fc1): Conv2d(40, 10, kernel_size=(1, 1), stride=(1, 1))
            (fc2): Conv2d(10, 40, kernel_size=(1, 1), stride=(1, 1))
            (activation): SiLU(inplace=True)
            (scale_activation): Sigmoid()
          )
          (2): Conv2dNormActivation(
            (0): Conv2d(40, 24, kernel_size=(1, 1), stride=(1, 1), bias=False)
            (1): BatchNorm2d(24, eps=1e-05, momentum=0.1, affine=True, track_running_stats=True)
          )
        )
        (stochastic_depth): StochasticDepth(p=0.0, mode=row)
      )
      (1): MBConv(
        (block): Sequential(
          (0): Conv2dNormActivation(
            (0): Conv2d(24, 24, kernel_size=(3, 3), stride=(1, 1), padding=(1, 1), groups=24, bias=False)
            (1): BatchNorm2d(24, eps=1e-05, momentum=0.1, affine=True, track_running_stats=True)
            (2): SiLU(inplace=True)
          )
          (1): SqueezeExcitation(
            (avgpool): AdaptiveAvgPool2d(output_size=1)
            (fc1): Conv2d(24, 6, kernel_size=(1, 1), stride=(1, 1))
            (fc2): Conv2d(6, 24, kernel_size=(1, 1), stride=(1, 1))
            (activation): SiLU(inplace=True)
            (scale_activation): Sigmoid()
          )
          (2): Conv2dNormActivation(
            (0): Conv2d(24, 24, kernel_size=(1, 1), stride=(1, 1), bias=False)
            (1): BatchNorm2d(24, eps=1e-05, momentum=0.1, affine=True, track_running_stats=True)
          )
        )
        (stochastic_depth): StochasticDepth(p=0.007692307692307693, mode=row)
      )
    )
    (2): Sequential(
      (0): MBConv(
        (block): Sequential(
          (0): Conv2dNormActivation(
            (0): Conv2d(24, 144, kernel_size=(1, 1), stride=(1, 1), bias=False)
            (1): BatchNorm2d(144, eps=1e-05, momentum=0.1, affine=True, track_running_stats=True)
            (2): SiLU(inplace=True)
          )
          (1): Conv2dNormActivation(
            (0): Conv2d(144, 144, kernel_size=(3, 3), stride=(2, 2), padding=(1, 1), groups=144, bias=False)
            (1): BatchNorm2d(144, eps=1e-05, momentum=0.1, affine=True, track_running_stats=True)
            (2): SiLU(inplace=True)
          )
          (2): SqueezeExcitation(
            (avgpool): AdaptiveAvgPool2d(output_size=1)
            (fc1): Conv2d(144, 6, kernel_size=(1, 1), stride=(1, 1))
            (fc2): Conv2d(6, 144, kernel_size=(1, 1), stride=(1, 1))
            (activation): SiLU(inplace=True)
            (scale_activation): Sigmoid()
          )
          (3): Conv2dNormActivation(
            (0): Conv2d(144, 32, kernel_size=(1, 1), stride=(1, 1), bias=False)
            (1): BatchNorm2d(32, eps=1e-05, momentum=0.1, affine=True, track_running_stats=True)
          )
        )
        (stochastic_depth): StochasticDepth(p=0.015384615384615385, mode=row)
      )
      (1): MBConv(
        (block): Sequential(
          (0): Conv2dNormActivation(
            (0): Conv2d(32, 192, kernel_size=(1, 1), stride=(1, 1), bias=False)
            (1): BatchNorm2d(192, eps=1e-05, momentum=0.1, affine=True, track_running_stats=True)
            (2): SiLU(inplace=True)
          )
          (1): Conv2dNormActivation(
            (0): Conv2d(192, 192, kernel_size=(3, 3), stride=(1, 1), padding=(1, 1), groups=192, bias=False)
            (1): BatchNorm2d(192, eps=1e-05, momentum=0.1, affine=True, track_running_stats=True)
            (2): SiLU(inplace=True)
          )
          (2): SqueezeExcitation(
            (avgpool): AdaptiveAvgPool2d(output_size=1)
            (fc1): Conv2d(192, 8, kernel_size=(1, 1), stride=(1, 1))
            (fc2): Conv2d(8, 192, kernel_size=(1, 1), stride=(1, 1))
            (activation): SiLU(inplace=True)
            (scale_activation): Sigmoid()
          )
          (3): Conv2dNormActivation(
            (0): Conv2d(192, 32, kernel_size=(1, 1), stride=(1, 1), bias=False)
            (1): BatchNorm2d(32, eps=1e-05, momentum=0.1, affine=True, track_running_stats=True)
          )
        )
        (stochastic_depth): StochasticDepth(p=0.02307692307692308, mode=row)
      )
      (2): MBConv(
        (block): Sequential(
          (0): Conv2dNormActivation(
            (0): Conv2d(32, 192, kernel_size=(1, 1), stride=(1, 1), bias=False)
            (1): BatchNorm2d(192, eps=1e-05, momentum=0.1, affine=True, track_running_stats=True)
            (2): SiLU(inplace=True)
          )
          (1): Conv2dNormActivation(
            (0): Conv2d(192, 192, kernel_size=(3, 3), stride=(1, 1), padding=(1, 1), groups=192, bias=False)
            (1): BatchNorm2d(192, eps=1e-05, momentum=0.1, affine=True, track_running_stats=True)
            (2): SiLU(inplace=True)
          )
          (2): SqueezeExcitation(
            (avgpool): AdaptiveAvgPool2d(output_size=1)
            (fc1): Conv2d(192, 8, kernel_size=(1, 1), stride=(1, 1))
            (fc2): Conv2d(8, 192, kernel_size=(1, 1), stride=(1, 1))
            (activation): SiLU(inplace=True)
            (scale_activation): Sigmoid()
          )
          (3): Conv2dNormActivation(
            (0): Conv2d(192, 32, kernel_size=(1, 1), stride=(1, 1), bias=False)
            (1): BatchNorm2d(32, eps=1e-05, momentum=0.1, affine=True, track_running_stats=True)
          )
        )
        (stochastic_depth): StochasticDepth(p=0.03076923076923077, mode=row)
      )
    )
    (3): Sequential(
      (0): MBConv(
        (block): Sequential(
          (0): Conv2dNormActivation(
            (0): Conv2d(32, 192, kernel_size=(1, 1), stride=(1, 1), bias=False)
            (1): BatchNorm2d(192, eps=1e-05, momentum=0.1, affine=True, track_running_stats=True)
            (2): SiLU(inplace=True)
          )
          (1): Conv2dNormActivation(
            (0): Conv2d(192, 192, kernel_size=(5, 5), stride=(2, 2), padding=(2, 2), groups=192, bias=False)
            (1): BatchNorm2d(192, eps=1e-05, momentum=0.1, affine=True, track_running_stats=True)
            (2): SiLU(inplace=True)
          )
          (2): SqueezeExcitation(
            (avgpool): AdaptiveAvgPool2d(output_size=1)
            (fc1): Conv2d(192, 8, kernel_size=(1, 1), stride=(1, 1))
            (fc2): Conv2d(8, 192, kernel_size=(1, 1), stride=(1, 1))
            (activation): SiLU(inplace=True)
            (scale_activation): Sigmoid()
          )
          (3): Conv2dNormActivation(
            (0): Conv2d(192, 48, kernel_size=(1, 1), stride=(1, 1), bias=False)
            (1): BatchNorm2d(48, eps=1e-05, momentum=0.1, affine=True, track_running_stats=True)
          )
        )
        (stochastic_depth): StochasticDepth(p=0.038461538461538464, mode=row)
      )
      (1): MBConv(
        (block): Sequential(
          (0): Conv2dNormActivation(
            (0): Conv2d(48, 288, kernel_size=(1, 1), stride=(1, 1), bias=False)
            (1): BatchNorm2d(288, eps=1e-05, momentum=0.1, affine=True, track_running_stats=True)
            (2): SiLU(inplace=True)
          )
          (1): Conv2dNormActivation(
            (0): Conv2d(288, 288, kernel_size=(5, 5), stride=(1, 1), padding=(2, 2), groups=288, bias=False)
            (1): BatchNorm2d(288, eps=1e-05, momentum=0.1, affine=True, track_running_stats=True)
            (2): SiLU(inplace=True)
          )
          (2): SqueezeExcitation(
            (avgpool): AdaptiveAvgPool2d(output_size=1)
            (fc1): Conv2d(288, 12, kernel_size=(1, 1), stride=(1, 1))
            (fc2): Conv2d(12, 288, kernel_size=(1, 1), stride=(1, 1))
            (activation): SiLU(inplace=True)
            (scale_activation): Sigmoid()
          )
          (3): Conv2dNormActivation(
            (0): Conv2d(288, 48, kernel_size=(1, 1), stride=(1, 1), bias=False)
            (1): BatchNorm2d(48, eps=1e-05, momentum=0.1, affine=True, track_running_stats=True)
          )
        )
        (stochastic_depth): StochasticDepth(p=0.04615384615384616, mode=row)
      )
      (2): MBConv(
        (block): Sequential(
          (0): Conv2dNormActivation(
            (0): Conv2d(48, 288, kernel_size=(1, 1), stride=(1, 1), bias=False)
            (1): BatchNorm2d(288, eps=1e-05, momentum=0.1, affine=True, track_running_stats=True)
            (2): SiLU(inplace=True)
          )
          (1): Conv2dNormActivation(
            (0): Conv2d(288, 288, kernel_size=(5, 5), stride=(1, 1), padding=(2, 2), groups=288, bias=False)
            (1): BatchNorm2d(288, eps=1e-05, momentum=0.1, affine=True, track_running_stats=True)
            (2): SiLU(inplace=True)
          )
          (2): SqueezeExcitation(
            (avgpool): AdaptiveAvgPool2d(output_size=1)
            (fc1): Conv2d(288, 12, kernel_size=(1, 1), stride=(1, 1))
            (fc2): Conv2d(12, 288, kernel_size=(1, 1), stride=(1, 1))
            (activation): SiLU(inplace=True)
            (scale_activation): Sigmoid()
          )
          (3): Conv2dNormActivation(
            (0): Conv2d(288, 48, kernel_size=(1, 1), stride=(1, 1), bias=False)
            (1): BatchNorm2d(48, eps=1e-05, momentum=0.1, affine=True, track_running_stats=True)
          )
        )
        (stochastic_depth): StochasticDepth(p=0.05384615384615385, mode=row)
      )
    )
    (4): Sequential(
      (0): MBConv(
        (block): Sequential(
          (0): Conv2dNormActivation(
            (0): Conv2d(48, 288, kernel_size=(1, 1), stride=(1, 1), bias=False)
            (1): BatchNorm2d(288, eps=1e-05, momentum=0.1, affine=True, track_running_stats=True)
            (2): SiLU(inplace=True)
          )
          (1): Conv2dNormActivation(
            (0): Conv2d(288, 288, kernel_size=(3, 3), stride=(2, 2), padding=(1, 1), groups=288, bias=False)
            (1): BatchNorm2d(288, eps=1e-05, momentum=0.1, affine=True, track_running_stats=True)
            (2): SiLU(inplace=True)
          )
          (2): SqueezeExcitation(
            (avgpool): AdaptiveAvgPool2d(output_size=1)
            (fc1): Conv2d(288, 12, kernel_size=(1, 1), stride=(1, 1))
            (fc2): Conv2d(12, 288, kernel_size=(1, 1), stride=(1, 1))
            (activation): SiLU(inplace=True)
            (scale_activation): Sigmoid()
          )
          (3): Conv2dNormActivation(
            (0): Conv2d(288, 96, kernel_size=(1, 1), stride=(1, 1), bias=False)
            (1): BatchNorm2d(96, eps=1e-05, momentum=0.1, affine=True, track_running_stats=True)
          )
        )
        (stochastic_depth): StochasticDepth(p=0.06153846153846154, mode=row)
      )
      (1): MBConv(
        (block): Sequential(
          (0): Conv2dNormActivation(
            (0): Conv2d(96, 576, kernel_size=(1, 1), stride=(1, 1), bias=False)
            (1): BatchNorm2d(576, eps=1e-05, momentum=0.1, affine=True, track_running_stats=True)
            (2): SiLU(inplace=True)
          )
          (1): Conv2dNormActivation(
            (0): Conv2d(576, 576, kernel_size=(3, 3), stride=(1, 1), padding=(1, 1), groups=576, bias=False)
            (1): BatchNorm2d(576, eps=1e-05, momentum=0.1, affine=True, track_running_stats=True)
            (2): SiLU(inplace=True)
          )
          (2): SqueezeExcitation(
            (avgpool): AdaptiveAvgPool2d(output_size=1)
            (fc1): Conv2d(576, 24, kernel_size=(1, 1), stride=(1, 1))
            (fc2): Conv2d(24, 576, kernel_size=(1, 1), stride=(1, 1))
            (activation): SiLU(inplace=True)
            (scale_activation): Sigmoid()
          )
          (3): Conv2dNormActivation(
            (0): Conv2d(576, 96, kernel_size=(1, 1), stride=(1, 1), bias=False)
            (1): BatchNorm2d(96, eps=1e-05, momentum=0.1, affine=True, track_running_stats=True)
          )
        )
        (stochastic_depth): StochasticDepth(p=0.06923076923076923, mode=row)
      )
      (2): MBConv(
        (block): Sequential(
          (0): Conv2dNormActivation(
            (0): Conv2d(96, 576, kernel_size=(1, 1), stride=(1, 1), bias=False)
            (1): BatchNorm2d(576, eps=1e-05, momentum=0.1, affine=True, track_running_stats=True)
            (2): SiLU(inplace=True)
          )
          (1): Conv2dNormActivation(
            (0): Conv2d(576, 576, kernel_size=(3, 3), stride=(1, 1), padding=(1, 1), groups=576, bias=False)
            (1): BatchNorm2d(576, eps=1e-05, momentum=0.1, affine=True, track_running_stats=True)
            (2): SiLU(inplace=True)
          )
          (2): SqueezeExcitation(
            (avgpool): AdaptiveAvgPool2d(output_size=1)
            (fc1): Conv2d(576, 24, kernel_size=(1, 1), stride=(1, 1))
            (fc2): Conv2d(24, 576, kernel_size=(1, 1), stride=(1, 1))
            (activation): SiLU(inplace=True)
            (scale_activation): Sigmoid()
          )
          (3): Conv2dNormActivation(
            (0): Conv2d(576, 96, kernel_size=(1, 1), stride=(1, 1), bias=False)
            (1): BatchNorm2d(96, eps=1e-05, momentum=0.1, affine=True, track_running_stats=True)
          )
        )
        (stochastic_depth): StochasticDepth(p=0.07692307692307693, mode=row)
      )
      (3): MBConv(
        (block): Sequential(
          (0): Conv2dNormActivation(
            (0): Conv2d(96, 576, kernel_size=(1, 1), stride=(1, 1), bias=False)
            (1): BatchNorm2d(576, eps=1e-05, momentum=0.1, affine=True, track_running_stats=True)
            (2): SiLU(inplace=True)
          )
          (1): Conv2dNormActivation(
            (0): Conv2d(576, 576, kernel_size=(3, 3), stride=(1, 1), padding=(1, 1), groups=576, bias=False)
            (1): BatchNorm2d(576, eps=1e-05, momentum=0.1, affine=True, track_running_stats=True)
            (2): SiLU(inplace=True)
          )
          (2): SqueezeExcitation(
            (avgpool): AdaptiveAvgPool2d(output_size=1)
            (fc1): Conv2d(576, 24, kernel_size=(1, 1), stride=(1, 1))
            (fc2): Conv2d(24, 576, kernel_size=(1, 1), stride=(1, 1))
            (activation): SiLU(inplace=True)
            (scale_activation): Sigmoid()
          )
          (3): Conv2dNormActivation(
            (0): Conv2d(576, 96, kernel_size=(1, 1), stride=(1, 1), bias=False)
            (1): BatchNorm2d(96, eps=1e-05, momentum=0.1, affine=True, track_running_stats=True)
          )
        )
        (stochastic_depth): StochasticDepth(p=0.08461538461538462, mode=row)
      )
      (4): MBConv(
        (block): Sequential(
          (0): Conv2dNormActivation(
            (0): Conv2d(96, 576, kernel_size=(1, 1), stride=(1, 1), bias=False)
            (1): BatchNorm2d(576, eps=1e-05, momentum=0.1, affine=True, track_running_stats=True)
            (2): SiLU(inplace=True)
          )
          (1): Conv2dNormActivation(
            (0): Conv2d(576, 576, kernel_size=(3, 3), stride=(1, 1), padding=(1, 1), groups=576, bias=False)
            (1): BatchNorm2d(576, eps=1e-05, momentum=0.1, affine=True, track_running_stats=True)
            (2): SiLU(inplace=True)
          )
          (2): SqueezeExcitation(
            (avgpool): AdaptiveAvgPool2d(output_size=1)
            (fc1): Conv2d(576, 24, kernel_size=(1, 1), stride=(1, 1))
            (fc2): Conv2d(24, 576, kernel_size=(1, 1), stride=(1, 1))
            (activation): SiLU(inplace=True)
            (scale_activation): Sigmoid()
          )
          (3): Conv2dNormActivation(
            (0): Conv2d(576, 96, kernel_size=(1, 1), stride=(1, 1), bias=False)
            (1): BatchNorm2d(96, eps=1e-05, momentum=0.1, affine=True, track_running_stats=True)
          )
        )
        (stochastic_depth): StochasticDepth(p=0.09230769230769233, mode=row)
      )
    )
    (5): Sequential(
      (0): MBConv(
        (block): Sequential(
          (0): Conv2dNormActivation(
            (0): Conv2d(96, 576, kernel_size=(1, 1), stride=(1, 1), bias=False)
            (1): BatchNorm2d(576, eps=1e-05, momentum=0.1, affine=True, track_running_stats=True)
            (2): SiLU(inplace=True)
          )
          (1): Conv2dNormActivation(
            (0): Conv2d(576, 576, kernel_size=(5, 5), stride=(1, 1), padding=(2, 2), groups=576, bias=False)
            (1): BatchNorm2d(576, eps=1e-05, momentum=0.1, affine=True, track_running_stats=True)
            (2): SiLU(inplace=True)
          )
          (2): SqueezeExcitation(
            (avgpool): AdaptiveAvgPool2d(output_size=1)
            (fc1): Conv2d(576, 24, kernel_size=(1, 1), stride=(1, 1))
            (fc2): Conv2d(24, 576, kernel_size=(1, 1), stride=(1, 1))
            (activation): SiLU(inplace=True)
            (scale_activation): Sigmoid()
          )
          (3): Conv2dNormActivation(
            (0): Conv2d(576, 136, kernel_size=(1, 1), stride=(1, 1), bias=False)
            (1): BatchNorm2d(136, eps=1e-05, momentum=0.1, affine=True, track_running_stats=True)
          )
        )
        (stochastic_depth): StochasticDepth(p=0.1, mode=row)
      )
      (1): MBConv(
        (block): Sequential(
          (0): Conv2dNormActivation(
            (0): Conv2d(136, 816, kernel_size=(1, 1), stride=(1, 1), bias=False)
            (1): BatchNorm2d(816, eps=1e-05, momentum=0.1, affine=True, track_running_stats=True)
            (2): SiLU(inplace=True)
          )
          (1): Conv2dNormActivation(
            (0): Conv2d(816, 816, kernel_size=(5, 5), stride=(1, 1), padding=(2, 2), groups=816, bias=False)
            (1): BatchNorm2d(816, eps=1e-05, momentum=0.1, affine=True, track_running_stats=True)
            (2): SiLU(inplace=True)
          )
          (2): SqueezeExcitation(
            (avgpool): AdaptiveAvgPool2d(output_size=1)
            (fc1): Conv2d(816, 34, kernel_size=(1, 1), stride=(1, 1))
            (fc2): Conv2d(34, 816, kernel_size=(1, 1), stride=(1, 1))
            (activation): SiLU(inplace=True)
            (scale_activation): Sigmoid()
          )
          (3): Conv2dNormActivation(
            (0): Conv2d(816, 136, kernel_size=(1, 1), stride=(1, 1), bias=False)
            (1): BatchNorm2d(136, eps=1e-05, momentum=0.1, affine=True, track_running_stats=True)
          )
        )
        (stochastic_depth): StochasticDepth(p=0.1076923076923077, mode=row)
      )
      (2): MBConv(
        (block): Sequential(
          (0): Conv2dNormActivation(
            (0): Conv2d(136, 816, kernel_size=(1, 1), stride=(1, 1), bias=False)
            (1): BatchNorm2d(816, eps=1e-05, momentum=0.1, affine=True, track_running_stats=True)
            (2): SiLU(inplace=True)
          )
          (1): Conv2dNormActivation(
            (0): Conv2d(816, 816, kernel_size=(5, 5), stride=(1, 1), padding=(2, 2), groups=816, bias=False)
            (1): BatchNorm2d(816, eps=1e-05, momentum=0.1, affine=True, track_running_stats=True)
            (2): SiLU(inplace=True)
          )
          (2): SqueezeExcitation(
            (avgpool): AdaptiveAvgPool2d(output_size=1)
            (fc1): Conv2d(816, 34, kernel_size=(1, 1), stride=(1, 1))
            (fc2): Conv2d(34, 816, kernel_size=(1, 1), stride=(1, 1))
            (activation): SiLU(inplace=True)
            (scale_activation): Sigmoid()
          )
          (3): Conv2dNormActivation(
            (0): Conv2d(816, 136, kernel_size=(1, 1), stride=(1, 1), bias=False)
            (1): BatchNorm2d(136, eps=1e-05, momentum=0.1, affine=True, track_running_stats=True)
          )
        )
        (stochastic_depth): StochasticDepth(p=0.11538461538461539, mode=row)
      )
      (3): MBConv(
        (block): Sequential(
          (0): Conv2dNormActivation(
            (0): Conv2d(136, 816, kernel_size=(1, 1), stride=(1, 1), bias=False)
            (1): BatchNorm2d(816, eps=1e-05, momentum=0.1, affine=True, track_running_stats=True)
            (2): SiLU(inplace=True)
          )
          (1): Conv2dNormActivation(
            (0): Conv2d(816, 816, kernel_size=(5, 5), stride=(1, 1), padding=(2, 2), groups=816, bias=False)
            (1): BatchNorm2d(816, eps=1e-05, momentum=0.1, affine=True, track_running_stats=True)
            (2): SiLU(inplace=True)
          )
          (2): SqueezeExcitation(
            (avgpool): AdaptiveAvgPool2d(output_size=1)
            (fc1): Conv2d(816, 34, kernel_size=(1, 1), stride=(1, 1))
            (fc2): Conv2d(34, 816, kernel_size=(1, 1), stride=(1, 1))
            (activation): SiLU(inplace=True)
            (scale_activation): Sigmoid()
          )
          (3): Conv2dNormActivation(
            (0): Conv2d(816, 136, kernel_size=(1, 1), stride=(1, 1), bias=False)
            (1): BatchNorm2d(136, eps=1e-05, momentum=0.1, affine=True, track_running_stats=True)
          )
        )
        (stochastic_depth): StochasticDepth(p=0.12307692307692308, mode=row)
      )
      (4): MBConv(
        (block): Sequential(
          (0): Conv2dNormActivation(
            (0): Conv2d(136, 816, kernel_size=(1, 1), stride=(1, 1), bias=False)
            (1): BatchNorm2d(816, eps=1e-05, momentum=0.1, affine=True, track_running_stats=True)
            (2): SiLU(inplace=True)
          )
          (1): Conv2dNormActivation(
            (0): Conv2d(816, 816, kernel_size=(5, 5), stride=(1, 1), padding=(2, 2), groups=816, bias=False)
            (1): BatchNorm2d(816, eps=1e-05, momentum=0.1, affine=True, track_running_stats=True)
            (2): SiLU(inplace=True)
          )
          (2): SqueezeExcitation(
            (avgpool): AdaptiveAvgPool2d(output_size=1)
            (fc1): Conv2d(816, 34, kernel_size=(1, 1), stride=(1, 1))
            (fc2): Conv2d(34, 816, kernel_size=(1, 1), stride=(1, 1))
            (activation): SiLU(inplace=True)
            (scale_activation): Sigmoid()
          )
          (3): Conv2dNormActivation(
            (0): Conv2d(816, 136, kernel_size=(1, 1), stride=(1, 1), bias=False)
            (1): BatchNorm2d(136, eps=1e-05, momentum=0.1, affine=True, track_running_stats=True)
          )
        )
        (stochastic_depth): StochasticDepth(p=0.13076923076923078, mode=row)
      )
    )
    (6): Sequential(
      (0): MBConv(
        (block): Sequential(
          (0): Conv2dNormActivation(
            (0): Conv2d(136, 816, kernel_size=(1, 1), stride=(1, 1), bias=False)
            (1): BatchNorm2d(816, eps=1e-05, momentum=0.1, affine=True, track_running_stats=True)
            (2): SiLU(inplace=True)
          )
          (1): Conv2dNormActivation(
            (0): Conv2d(816, 816, kernel_size=(5, 5), stride=(2, 2), padding=(2, 2), groups=816, bias=False)
            (1): BatchNorm2d(816, eps=1e-05, momentum=0.1, affine=True, track_running_stats=True)
            (2): SiLU(inplace=True)
          )
          (2): SqueezeExcitation(
            (avgpool): AdaptiveAvgPool2d(output_size=1)
            (fc1): Conv2d(816, 34, kernel_size=(1, 1), stride=(1, 1))
            (fc2): Conv2d(34, 816, kernel_size=(1, 1), stride=(1, 1))
            (activation): SiLU(inplace=True)
            (scale_activation): Sigmoid()
          )
          (3): Conv2dNormActivation(
            (0): Conv2d(816, 232, kernel_size=(1, 1), stride=(1, 1), bias=False)
            (1): BatchNorm2d(232, eps=1e-05, momentum=0.1, affine=True, track_running_stats=True)
          )
        )
        (stochastic_depth): StochasticDepth(p=0.13846153846153847, mode=row)
      )
      (1): MBConv(
        (block): Sequential(
          (0): Conv2dNormActivation(
            (0): Conv2d(232, 1392, kernel_size=(1, 1), stride=(1, 1), bias=False)
            (1): BatchNorm2d(1392, eps=1e-05, momentum=0.1, affine=True, track_running_stats=True)
            (2): SiLU(inplace=True)
          )
          (1): Conv2dNormActivation(
            (0): Conv2d(1392, 1392, kernel_size=(5, 5), stride=(1, 1), padding=(2, 2), groups=1392, bias=False)
            (1): BatchNorm2d(1392, eps=1e-05, momentum=0.1, affine=True, track_running_stats=True)
            (2): SiLU(inplace=True)
          )
          (2): SqueezeExcitation(
            (avgpool): AdaptiveAvgPool2d(output_size=1)
            (fc1): Conv2d(1392, 58, kernel_size=(1, 1), stride=(1, 1))
            (fc2): Conv2d(58, 1392, kernel_size=(1, 1), stride=(1, 1))
            (activation): SiLU(inplace=True)
            (scale_activation): Sigmoid()
          )
          (3): Conv2dNormActivation(
            (0): Conv2d(1392, 232, kernel_size=(1, 1), stride=(1, 1), bias=False)
            (1): BatchNorm2d(232, eps=1e-05, momentum=0.1, affine=True, track_running_stats=True)
          )
        )
        (stochastic_depth): StochasticDepth(p=0.14615384615384616, mode=row)
      )
      (2): MBConv(
        (block): Sequential(
          (0): Conv2dNormActivation(
            (0): Conv2d(232, 1392, kernel_size=(1, 1), stride=(1, 1), bias=False)
            (1): BatchNorm2d(1392, eps=1e-05, momentum=0.1, affine=True, track_running_stats=True)
            (2): SiLU(inplace=True)
          )
          (1): Conv2dNormActivation(
            (0): Conv2d(1392, 1392, kernel_size=(5, 5), stride=(1, 1), padding=(2, 2), groups=1392, bias=False)
            (1): BatchNorm2d(1392, eps=1e-05, momentum=0.1, affine=True, track_running_stats=True)
            (2): SiLU(inplace=True)
          )
          (2): SqueezeExcitation(
            (avgpool): AdaptiveAvgPool2d(output_size=1)
            (fc1): Conv2d(1392, 58, kernel_size=(1, 1), stride=(1, 1))
            (fc2): Conv2d(58, 1392, kernel_size=(1, 1), stride=(1, 1))
            (activation): SiLU(inplace=True)
            (scale_activation): Sigmoid()
          )
          (3): Conv2dNormActivation(
            (0): Conv2d(1392, 232, kernel_size=(1, 1), stride=(1, 1), bias=False)
            (1): BatchNorm2d(232, eps=1e-05, momentum=0.1, affine=True, track_running_stats=True)
          )
        )
        (stochastic_depth): StochasticDepth(p=0.15384615384615385, mode=row)
      )
      (3): MBConv(
        (block): Sequential(
          (0): Conv2dNormActivation(
            (0): Conv2d(232, 1392, kernel_size=(1, 1), stride=(1, 1), bias=False)
            (1): BatchNorm2d(1392, eps=1e-05, momentum=0.1, affine=True, track_running_stats=True)
            (2): SiLU(inplace=True)
          )
          (1): Conv2dNormActivation(
            (0): Conv2d(1392, 1392, kernel_size=(5, 5), stride=(1, 1), padding=(2, 2), groups=1392, bias=False)
            (1): BatchNorm2d(1392, eps=1e-05, momentum=0.1, affine=True, track_running_stats=True)
            (2): SiLU(inplace=True)
          )
          (2): SqueezeExcitation(
            (avgpool): AdaptiveAvgPool2d(output_size=1)
            (fc1): Conv2d(1392, 58, kernel_size=(1, 1), stride=(1, 1))
            (fc2): Conv2d(58, 1392, kernel_size=(1, 1), stride=(1, 1))
            (activation): SiLU(inplace=True)
            (scale_activation): Sigmoid()
          )
          (3): Conv2dNormActivation(
            (0): Conv2d(1392, 232, kernel_size=(1, 1), stride=(1, 1), bias=False)
            (1): BatchNorm2d(232, eps=1e-05, momentum=0.1, affine=True, track_running_stats=True)
          )
        )
        (stochastic_depth): StochasticDepth(p=0.16153846153846155, mode=row)
      )
      (4): MBConv(
        (block): Sequential(
          (0): Conv2dNormActivation(
            (0): Conv2d(232, 1392, kernel_size=(1, 1), stride=(1, 1), bias=False)
            (1): BatchNorm2d(1392, eps=1e-05, momentum=0.1, affine=True, track_running_stats=True)
            (2): SiLU(inplace=True)
          )
          (1): Conv2dNormActivation(
            (0): Conv2d(1392, 1392, kernel_size=(5, 5), stride=(1, 1), padding=(2, 2), groups=1392, bias=False)
            (1): BatchNorm2d(1392, eps=1e-05, momentum=0.1, affine=True, track_running_stats=True)
            (2): SiLU(inplace=True)
          )
          (2): SqueezeExcitation(
            (avgpool): AdaptiveAvgPool2d(output_size=1)
            (fc1): Conv2d(1392, 58, kernel_size=(1, 1), stride=(1, 1))
            (fc2): Conv2d(58, 1392, kernel_size=(1, 1), stride=(1, 1))
            (activation): SiLU(inplace=True)
            (scale_activation): Sigmoid()
          )
          (3): Conv2dNormActivation(
            (0): Conv2d(1392, 232, kernel_size=(1, 1), stride=(1, 1), bias=False)
            (1): BatchNorm2d(232, eps=1e-05, momentum=0.1, affine=True, track_running_stats=True)
          )
        )
        (stochastic_depth): StochasticDepth(p=0.16923076923076924, mode=row)
      )
      (5): MBConv(
        (block): Sequential(
          (0): Conv2dNormActivation(
            (0): Conv2d(232, 1392, kernel_size=(1, 1), stride=(1, 1), bias=False)
            (1): BatchNorm2d(1392, eps=1e-05, momentum=0.1, affine=True, track_running_stats=True)
            (2): SiLU(inplace=True)
          )
          (1): Conv2dNormActivation(
            (0): Conv2d(1392, 1392, kernel_size=(5, 5), stride=(1, 1), padding=(2, 2), groups=1392, bias=False)
            (1): BatchNorm2d(1392, eps=1e-05, momentum=0.1, affine=True, track_running_stats=True)
            (2): SiLU(inplace=True)
          )
          (2): SqueezeExcitation(
            (avgpool): AdaptiveAvgPool2d(output_size=1)
            (fc1): Conv2d(1392, 58, kernel_size=(1, 1), stride=(1, 1))
            (fc2): Conv2d(58, 1392, kernel_size=(1, 1), stride=(1, 1))
            (activation): SiLU(inplace=True)
            (scale_activation): Sigmoid()
          )
          (3): Conv2dNormActivation(
            (0): Conv2d(1392, 232, kernel_size=(1, 1), stride=(1, 1), bias=False)
            (1): BatchNorm2d(232, eps=1e-05, momentum=0.1, affine=True, track_running_stats=True)
          )
        )
        (stochastic_depth): StochasticDepth(p=0.17692307692307693, mode=row)
      )
    )
    (7): Sequential(
      (0): MBConv(
        (block): Sequential(
          (0): Conv2dNormActivation(
            (0): Conv2d(232, 1392, kernel_size=(1, 1), stride=(1, 1), bias=False)
            (1): BatchNorm2d(1392, eps=1e-05, momentum=0.1, affine=True, track_running_stats=True)
            (2): SiLU(inplace=True)
          )
          (1): Conv2dNormActivation(
            (0): Conv2d(1392, 1392, kernel_size=(3, 3), stride=(1, 1), padding=(1, 1), groups=1392, bias=False)
            (1): BatchNorm2d(1392, eps=1e-05, momentum=0.1, affine=True, track_running_stats=True)
            (2): SiLU(inplace=True)
          )
          (2): SqueezeExcitation(
            (avgpool): AdaptiveAvgPool2d(output_size=1)
            (fc1): Conv2d(1392, 58, kernel_size=(1, 1), stride=(1, 1))
            (fc2): Conv2d(58, 1392, kernel_size=(1, 1), stride=(1, 1))
            (activation): SiLU(inplace=True)
            (scale_activation): Sigmoid()
          )
          (3): Conv2dNormActivation(
            (0): Conv2d(1392, 384, kernel_size=(1, 1), stride=(1, 1), bias=False)
            (1): BatchNorm2d(384, eps=1e-05, momentum=0.1, affine=True, track_running_stats=True)
          )
        )
        (stochastic_depth): StochasticDepth(p=0.18461538461538465, mode=row)
      )
      (1): MBConv(
        (block): Sequential(
          (0): Conv2dNormActivation(
            (0): Conv2d(384, 2304, kernel_size=(1, 1), stride=(1, 1), bias=False)
            (1): BatchNorm2d(2304, eps=1e-05, momentum=0.1, affine=True, track_running_stats=True)
            (2): SiLU(inplace=True)
          )
          (1): Conv2dNormActivation(
            (0): Conv2d(2304, 2304, kernel_size=(3, 3), stride=(1, 1), padding=(1, 1), groups=2304, bias=False)
            (1): BatchNorm2d(2304, eps=1e-05, momentum=0.1, affine=True, track_running_stats=True)
            (2): SiLU(inplace=True)
          )
          (2): SqueezeExcitation(
            (avgpool): AdaptiveAvgPool2d(output_size=1)
            (fc1): Conv2d(2304, 96, kernel_size=(1, 1), stride=(1, 1))
            (fc2): Conv2d(96, 2304, kernel_size=(1, 1), stride=(1, 1))
            (activation): SiLU(inplace=True)
            (scale_activation): Sigmoid()
          )
          (3): Conv2dNormActivation(
            (0): Conv2d(2304, 384, kernel_size=(1, 1), stride=(1, 1), bias=False)
            (1): BatchNorm2d(384, eps=1e-05, momentum=0.1, affine=True, track_running_stats=True)
          )
        )
        (stochastic_depth): StochasticDepth(p=0.19230769230769232, mode=row)
      )
    )
    (8): Conv2dNormActivation(
      (0): Conv2d(384, 1536, kernel_size=(1, 1), stride=(1, 1), bias=False)
      (1): BatchNorm2d(1536, eps=1e-05, momentum=0.1, affine=True, track_running_stats=True)
      (2): SiLU(inplace=True)
    )
  )
  (avgpool): AdaptiveAvgPool2d(output_size=1)
  (classifier): Identity()
)

Attention Mechanism:
Sequential(
  (0): Conv2d(1536, 1, kernel_size=(1, 1), stride=(1, 1))
  (1): Sigmoid()
)

Feature Extractor:
Sequential(
  (0): Linear(in_features=1536, out_features=1024, bias=True)
  (1): LayerNorm((1024,), eps=1e-05, elementwise_affine=True)
  (2): GELU(approximate='none')
  (3): Dropout(p=0.2, inplace=False)
  (4): Linear(in_features=1024, out_features=512, bias=True)
  (5): LayerNorm((512,), eps=1e-05, elementwise_affine=True)
  (6): GELU(approximate='none')
  (7): Dropout(p=0.2, inplace=False)
  (8): Linear(in_features=512, out_features=256, bias=True)
  (9): LayerNorm((256,), eps=1e-05, elementwise_affine=True)
  (10): GELU(approximate='none')
  (11): Dropout(p=0.1, inplace=False)
)

==================================================

3. MELANOMA MODEL (FEATURE EXTRACTOR):
Backbone: EfficientNet(
  (features): Sequential(
    (0): Conv2dNormActivation(
      (0): Conv2d(3, 40, kernel_size=(3, 3), stride=(2, 2), padding=(1, 1), bias=False)
      (1): BatchNorm2d(40, eps=1e-05, momentum=0.1, affine=True, track_running_stats=True)
      (2): SiLU(inplace=True)
    )
    (1): Sequential(
      (0): MBConv(
        (block): Sequential(
          (0): Conv2dNormActivation(
            (0): Conv2d(40, 40, kernel_size=(3, 3), stride=(1, 1), padding=(1, 1), groups=40, bias=False)
            (1): BatchNorm2d(40, eps=1e-05, momentum=0.1, affine=True, track_running_stats=True)
            (2): SiLU(inplace=True)
          )
          (1): SqueezeExcitation(
            (avgpool): AdaptiveAvgPool2d(output_size=1)
            (fc1): Conv2d(40, 10, kernel_size=(1, 1), stride=(1, 1))
            (fc2): Conv2d(10, 40, kernel_size=(1, 1), stride=(1, 1))
            (activation): SiLU(inplace=True)
            (scale_activation): Sigmoid()
          )
          (2): Conv2dNormActivation(
            (0): Conv2d(40, 24, kernel_size=(1, 1), stride=(1, 1), bias=False)
            (1): BatchNorm2d(24, eps=1e-05, momentum=0.1, affine=True, track_running_stats=True)
          )
        )
        (stochastic_depth): StochasticDepth(p=0.0, mode=row)
      )
      (1): MBConv(
        (block): Sequential(
          (0): Conv2dNormActivation(
            (0): Conv2d(24, 24, kernel_size=(3, 3), stride=(1, 1), padding=(1, 1), groups=24, bias=False)
            (1): BatchNorm2d(24, eps=1e-05, momentum=0.1, affine=True, track_running_stats=True)
            (2): SiLU(inplace=True)
          )
          (1): SqueezeExcitation(
            (avgpool): AdaptiveAvgPool2d(output_size=1)
            (fc1): Conv2d(24, 6, kernel_size=(1, 1), stride=(1, 1))
            (fc2): Conv2d(6, 24, kernel_size=(1, 1), stride=(1, 1))
            (activation): SiLU(inplace=True)
            (scale_activation): Sigmoid()
          )
          (2): Conv2dNormActivation(
            (0): Conv2d(24, 24, kernel_size=(1, 1), stride=(1, 1), bias=False)
            (1): BatchNorm2d(24, eps=1e-05, momentum=0.1, affine=True, track_running_stats=True)
          )
        )
        (stochastic_depth): StochasticDepth(p=0.007692307692307693, mode=row)
      )
    )
    (2): Sequential(
      (0): MBConv(
        (block): Sequential(
          (0): Conv2dNormActivation(
            (0): Conv2d(24, 144, kernel_size=(1, 1), stride=(1, 1), bias=False)
            (1): BatchNorm2d(144, eps=1e-05, momentum=0.1, affine=True, track_running_stats=True)
            (2): SiLU(inplace=True)
          )
          (1): Conv2dNormActivation(
            (0): Conv2d(144, 144, kernel_size=(3, 3), stride=(2, 2), padding=(1, 1), groups=144, bias=False)
            (1): BatchNorm2d(144, eps=1e-05, momentum=0.1, affine=True, track_running_stats=True)
            (2): SiLU(inplace=True)
          )
          (2): SqueezeExcitation(
            (avgpool): AdaptiveAvgPool2d(output_size=1)
            (fc1): Conv2d(144, 6, kernel_size=(1, 1), stride=(1, 1))
            (fc2): Conv2d(6, 144, kernel_size=(1, 1), stride=(1, 1))
            (activation): SiLU(inplace=True)
            (scale_activation): Sigmoid()
          )
          (3): Conv2dNormActivation(
            (0): Conv2d(144, 32, kernel_size=(1, 1), stride=(1, 1), bias=False)
            (1): BatchNorm2d(32, eps=1e-05, momentum=0.1, affine=True, track_running_stats=True)
          )
        )
        (stochastic_depth): StochasticDepth(p=0.015384615384615385, mode=row)
      )
      (1): MBConv(
        (block): Sequential(
          (0): Conv2dNormActivation(
            (0): Conv2d(32, 192, kernel_size=(1, 1), stride=(1, 1), bias=False)
            (1): BatchNorm2d(192, eps=1e-05, momentum=0.1, affine=True, track_running_stats=True)
            (2): SiLU(inplace=True)
          )
          (1): Conv2dNormActivation(
            (0): Conv2d(192, 192, kernel_size=(3, 3), stride=(1, 1), padding=(1, 1), groups=192, bias=False)
            (1): BatchNorm2d(192, eps=1e-05, momentum=0.1, affine=True, track_running_stats=True)
            (2): SiLU(inplace=True)
          )
          (2): SqueezeExcitation(
            (avgpool): AdaptiveAvgPool2d(output_size=1)
            (fc1): Conv2d(192, 8, kernel_size=(1, 1), stride=(1, 1))
            (fc2): Conv2d(8, 192, kernel_size=(1, 1), stride=(1, 1))
            (activation): SiLU(inplace=True)
            (scale_activation): Sigmoid()
          )
          (3): Conv2dNormActivation(
            (0): Conv2d(192, 32, kernel_size=(1, 1), stride=(1, 1), bias=False)
            (1): BatchNorm2d(32, eps=1e-05, momentum=0.1, affine=True, track_running_stats=True)
          )
        )
        (stochastic_depth): StochasticDepth(p=0.02307692307692308, mode=row)
      )
      (2): MBConv(
        (block): Sequential(
          (0): Conv2dNormActivation(
            (0): Conv2d(32, 192, kernel_size=(1, 1), stride=(1, 1), bias=False)
            (1): BatchNorm2d(192, eps=1e-05, momentum=0.1, affine=True, track_running_stats=True)
            (2): SiLU(inplace=True)
          )
          (1): Conv2dNormActivation(
            (0): Conv2d(192, 192, kernel_size=(3, 3), stride=(1, 1), padding=(1, 1), groups=192, bias=False)
            (1): BatchNorm2d(192, eps=1e-05, momentum=0.1, affine=True, track_running_stats=True)
            (2): SiLU(inplace=True)
          )
          (2): SqueezeExcitation(
            (avgpool): AdaptiveAvgPool2d(output_size=1)
            (fc1): Conv2d(192, 8, kernel_size=(1, 1), stride=(1, 1))
            (fc2): Conv2d(8, 192, kernel_size=(1, 1), stride=(1, 1))
            (activation): SiLU(inplace=True)
            (scale_activation): Sigmoid()
          )
          (3): Conv2dNormActivation(
            (0): Conv2d(192, 32, kernel_size=(1, 1), stride=(1, 1), bias=False)
            (1): BatchNorm2d(32, eps=1e-05, momentum=0.1, affine=True, track_running_stats=True)
          )
        )
        (stochastic_depth): StochasticDepth(p=0.03076923076923077, mode=row)
      )
    )
    (3): Sequential(
      (0): MBConv(
        (block): Sequential(
          (0): Conv2dNormActivation(
            (0): Conv2d(32, 192, kernel_size=(1, 1), stride=(1, 1), bias=False)
            (1): BatchNorm2d(192, eps=1e-05, momentum=0.1, affine=True, track_running_stats=True)
            (2): SiLU(inplace=True)
          )
          (1): Conv2dNormActivation(
            (0): Conv2d(192, 192, kernel_size=(5, 5), stride=(2, 2), padding=(2, 2), groups=192, bias=False)
            (1): BatchNorm2d(192, eps=1e-05, momentum=0.1, affine=True, track_running_stats=True)
            (2): SiLU(inplace=True)
          )
          (2): SqueezeExcitation(
            (avgpool): AdaptiveAvgPool2d(output_size=1)
            (fc1): Conv2d(192, 8, kernel_size=(1, 1), stride=(1, 1))
            (fc2): Conv2d(8, 192, kernel_size=(1, 1), stride=(1, 1))
            (activation): SiLU(inplace=True)
            (scale_activation): Sigmoid()
          )
          (3): Conv2dNormActivation(
            (0): Conv2d(192, 48, kernel_size=(1, 1), stride=(1, 1), bias=False)
            (1): BatchNorm2d(48, eps=1e-05, momentum=0.1, affine=True, track_running_stats=True)
          )
        )
        (stochastic_depth): StochasticDepth(p=0.038461538461538464, mode=row)
      )
      (1): MBConv(
        (block): Sequential(
          (0): Conv2dNormActivation(
            (0): Conv2d(48, 288, kernel_size=(1, 1), stride=(1, 1), bias=False)
            (1): BatchNorm2d(288, eps=1e-05, momentum=0.1, affine=True, track_running_stats=True)
            (2): SiLU(inplace=True)
          )
          (1): Conv2dNormActivation(
            (0): Conv2d(288, 288, kernel_size=(5, 5), stride=(1, 1), padding=(2, 2), groups=288, bias=False)
            (1): BatchNorm2d(288, eps=1e-05, momentum=0.1, affine=True, track_running_stats=True)
            (2): SiLU(inplace=True)
          )
          (2): SqueezeExcitation(
            (avgpool): AdaptiveAvgPool2d(output_size=1)
            (fc1): Conv2d(288, 12, kernel_size=(1, 1), stride=(1, 1))
            (fc2): Conv2d(12, 288, kernel_size=(1, 1), stride=(1, 1))
            (activation): SiLU(inplace=True)
            (scale_activation): Sigmoid()
          )
          (3): Conv2dNormActivation(
            (0): Conv2d(288, 48, kernel_size=(1, 1), stride=(1, 1), bias=False)
            (1): BatchNorm2d(48, eps=1e-05, momentum=0.1, affine=True, track_running_stats=True)
          )
        )
        (stochastic_depth): StochasticDepth(p=0.04615384615384616, mode=row)
      )
      (2): MBConv(
        (block): Sequential(
          (0): Conv2dNormActivation(
            (0): Conv2d(48, 288, kernel_size=(1, 1), stride=(1, 1), bias=False)
            (1): BatchNorm2d(288, eps=1e-05, momentum=0.1, affine=True, track_running_stats=True)
            (2): SiLU(inplace=True)
          )
          (1): Conv2dNormActivation(
            (0): Conv2d(288, 288, kernel_size=(5, 5), stride=(1, 1), padding=(2, 2), groups=288, bias=False)
            (1): BatchNorm2d(288, eps=1e-05, momentum=0.1, affine=True, track_running_stats=True)
            (2): SiLU(inplace=True)
          )
          (2): SqueezeExcitation(
            (avgpool): AdaptiveAvgPool2d(output_size=1)
            (fc1): Conv2d(288, 12, kernel_size=(1, 1), stride=(1, 1))
            (fc2): Conv2d(12, 288, kernel_size=(1, 1), stride=(1, 1))
            (activation): SiLU(inplace=True)
            (scale_activation): Sigmoid()
          )
          (3): Conv2dNormActivation(
            (0): Conv2d(288, 48, kernel_size=(1, 1), stride=(1, 1), bias=False)
            (1): BatchNorm2d(48, eps=1e-05, momentum=0.1, affine=True, track_running_stats=True)
          )
        )
        (stochastic_depth): StochasticDepth(p=0.05384615384615385, mode=row)
      )
    )
    (4): Sequential(
      (0): MBConv(
        (block): Sequential(
          (0): Conv2dNormActivation(
            (0): Conv2d(48, 288, kernel_size=(1, 1), stride=(1, 1), bias=False)
            (1): BatchNorm2d(288, eps=1e-05, momentum=0.1, affine=True, track_running_stats=True)
            (2): SiLU(inplace=True)
          )
          (1): Conv2dNormActivation(
            (0): Conv2d(288, 288, kernel_size=(3, 3), stride=(2, 2), padding=(1, 1), groups=288, bias=False)
            (1): BatchNorm2d(288, eps=1e-05, momentum=0.1, affine=True, track_running_stats=True)
            (2): SiLU(inplace=True)
          )
          (2): SqueezeExcitation(
            (avgpool): AdaptiveAvgPool2d(output_size=1)
            (fc1): Conv2d(288, 12, kernel_size=(1, 1), stride=(1, 1))
            (fc2): Conv2d(12, 288, kernel_size=(1, 1), stride=(1, 1))
            (activation): SiLU(inplace=True)
            (scale_activation): Sigmoid()
          )
          (3): Conv2dNormActivation(
            (0): Conv2d(288, 96, kernel_size=(1, 1), stride=(1, 1), bias=False)
            (1): BatchNorm2d(96, eps=1e-05, momentum=0.1, affine=True, track_running_stats=True)
          )
        )
        (stochastic_depth): StochasticDepth(p=0.06153846153846154, mode=row)
      )
      (1): MBConv(
        (block): Sequential(
          (0): Conv2dNormActivation(
            (0): Conv2d(96, 576, kernel_size=(1, 1), stride=(1, 1), bias=False)
            (1): BatchNorm2d(576, eps=1e-05, momentum=0.1, affine=True, track_running_stats=True)
            (2): SiLU(inplace=True)
          )
          (1): Conv2dNormActivation(
            (0): Conv2d(576, 576, kernel_size=(3, 3), stride=(1, 1), padding=(1, 1), groups=576, bias=False)
            (1): BatchNorm2d(576, eps=1e-05, momentum=0.1, affine=True, track_running_stats=True)
            (2): SiLU(inplace=True)
          )
          (2): SqueezeExcitation(
            (avgpool): AdaptiveAvgPool2d(output_size=1)
            (fc1): Conv2d(576, 24, kernel_size=(1, 1), stride=(1, 1))
            (fc2): Conv2d(24, 576, kernel_size=(1, 1), stride=(1, 1))
            (activation): SiLU(inplace=True)
            (scale_activation): Sigmoid()
          )
          (3): Conv2dNormActivation(
            (0): Conv2d(576, 96, kernel_size=(1, 1), stride=(1, 1), bias=False)
            (1): BatchNorm2d(96, eps=1e-05, momentum=0.1, affine=True, track_running_stats=True)
          )
        )
        (stochastic_depth): StochasticDepth(p=0.06923076923076923, mode=row)
      )
      (2): MBConv(
        (block): Sequential(
          (0): Conv2dNormActivation(
            (0): Conv2d(96, 576, kernel_size=(1, 1), stride=(1, 1), bias=False)
            (1): BatchNorm2d(576, eps=1e-05, momentum=0.1, affine=True, track_running_stats=True)
            (2): SiLU(inplace=True)
          )
          (1): Conv2dNormActivation(
            (0): Conv2d(576, 576, kernel_size=(3, 3), stride=(1, 1), padding=(1, 1), groups=576, bias=False)
            (1): BatchNorm2d(576, eps=1e-05, momentum=0.1, affine=True, track_running_stats=True)
            (2): SiLU(inplace=True)
          )
          (2): SqueezeExcitation(
            (avgpool): AdaptiveAvgPool2d(output_size=1)
            (fc1): Conv2d(576, 24, kernel_size=(1, 1), stride=(1, 1))
            (fc2): Conv2d(24, 576, kernel_size=(1, 1), stride=(1, 1))
            (activation): SiLU(inplace=True)
            (scale_activation): Sigmoid()
          )
          (3): Conv2dNormActivation(
            (0): Conv2d(576, 96, kernel_size=(1, 1), stride=(1, 1), bias=False)
            (1): BatchNorm2d(96, eps=1e-05, momentum=0.1, affine=True, track_running_stats=True)
          )
        )
        (stochastic_depth): StochasticDepth(p=0.07692307692307693, mode=row)
      )
      (3): MBConv(
        (block): Sequential(
          (0): Conv2dNormActivation(
            (0): Conv2d(96, 576, kernel_size=(1, 1), stride=(1, 1), bias=False)
            (1): BatchNorm2d(576, eps=1e-05, momentum=0.1, affine=True, track_running_stats=True)
            (2): SiLU(inplace=True)
          )
          (1): Conv2dNormActivation(
            (0): Conv2d(576, 576, kernel_size=(3, 3), stride=(1, 1), padding=(1, 1), groups=576, bias=False)
            (1): BatchNorm2d(576, eps=1e-05, momentum=0.1, affine=True, track_running_stats=True)
            (2): SiLU(inplace=True)
          )
          (2): SqueezeExcitation(
            (avgpool): AdaptiveAvgPool2d(output_size=1)
            (fc1): Conv2d(576, 24, kernel_size=(1, 1), stride=(1, 1))
            (fc2): Conv2d(24, 576, kernel_size=(1, 1), stride=(1, 1))
            (activation): SiLU(inplace=True)
            (scale_activation): Sigmoid()
          )
          (3): Conv2dNormActivation(
            (0): Conv2d(576, 96, kernel_size=(1, 1), stride=(1, 1), bias=False)
            (1): BatchNorm2d(96, eps=1e-05, momentum=0.1, affine=True, track_running_stats=True)
          )
        )
        (stochastic_depth): StochasticDepth(p=0.08461538461538462, mode=row)
      )
      (4): MBConv(
        (block): Sequential(
          (0): Conv2dNormActivation(
            (0): Conv2d(96, 576, kernel_size=(1, 1), stride=(1, 1), bias=False)
            (1): BatchNorm2d(576, eps=1e-05, momentum=0.1, affine=True, track_running_stats=True)
            (2): SiLU(inplace=True)
          )
          (1): Conv2dNormActivation(
            (0): Conv2d(576, 576, kernel_size=(3, 3), stride=(1, 1), padding=(1, 1), groups=576, bias=False)
            (1): BatchNorm2d(576, eps=1e-05, momentum=0.1, affine=True, track_running_stats=True)
            (2): SiLU(inplace=True)
          )
          (2): SqueezeExcitation(
            (avgpool): AdaptiveAvgPool2d(output_size=1)
            (fc1): Conv2d(576, 24, kernel_size=(1, 1), stride=(1, 1))
            (fc2): Conv2d(24, 576, kernel_size=(1, 1), stride=(1, 1))
            (activation): SiLU(inplace=True)
            (scale_activation): Sigmoid()
          )
          (3): Conv2dNormActivation(
            (0): Conv2d(576, 96, kernel_size=(1, 1), stride=(1, 1), bias=False)
            (1): BatchNorm2d(96, eps=1e-05, momentum=0.1, affine=True, track_running_stats=True)
          )
        )
        (stochastic_depth): StochasticDepth(p=0.09230769230769233, mode=row)
      )
    )
    (5): Sequential(
      (0): MBConv(
        (block): Sequential(
          (0): Conv2dNormActivation(
            (0): Conv2d(96, 576, kernel_size=(1, 1), stride=(1, 1), bias=False)
            (1): BatchNorm2d(576, eps=1e-05, momentum=0.1, affine=True, track_running_stats=True)
            (2): SiLU(inplace=True)
          )
          (1): Conv2dNormActivation(
            (0): Conv2d(576, 576, kernel_size=(5, 5), stride=(1, 1), padding=(2, 2), groups=576, bias=False)
            (1): BatchNorm2d(576, eps=1e-05, momentum=0.1, affine=True, track_running_stats=True)
            (2): SiLU(inplace=True)
          )
          (2): SqueezeExcitation(
            (avgpool): AdaptiveAvgPool2d(output_size=1)
            (fc1): Conv2d(576, 24, kernel_size=(1, 1), stride=(1, 1))
            (fc2): Conv2d(24, 576, kernel_size=(1, 1), stride=(1, 1))
            (activation): SiLU(inplace=True)
            (scale_activation): Sigmoid()
          )
          (3): Conv2dNormActivation(
            (0): Conv2d(576, 136, kernel_size=(1, 1), stride=(1, 1), bias=False)
            (1): BatchNorm2d(136, eps=1e-05, momentum=0.1, affine=True, track_running_stats=True)
          )
        )
        (stochastic_depth): StochasticDepth(p=0.1, mode=row)
      )
      (1): MBConv(
        (block): Sequential(
          (0): Conv2dNormActivation(
            (0): Conv2d(136, 816, kernel_size=(1, 1), stride=(1, 1), bias=False)
            (1): BatchNorm2d(816, eps=1e-05, momentum=0.1, affine=True, track_running_stats=True)
            (2): SiLU(inplace=True)
          )
          (1): Conv2dNormActivation(
            (0): Conv2d(816, 816, kernel_size=(5, 5), stride=(1, 1), padding=(2, 2), groups=816, bias=False)
            (1): BatchNorm2d(816, eps=1e-05, momentum=0.1, affine=True, track_running_stats=True)
            (2): SiLU(inplace=True)
          )
          (2): SqueezeExcitation(
            (avgpool): AdaptiveAvgPool2d(output_size=1)
            (fc1): Conv2d(816, 34, kernel_size=(1, 1), stride=(1, 1))
            (fc2): Conv2d(34, 816, kernel_size=(1, 1), stride=(1, 1))
            (activation): SiLU(inplace=True)
            (scale_activation): Sigmoid()
          )
          (3): Conv2dNormActivation(
            (0): Conv2d(816, 136, kernel_size=(1, 1), stride=(1, 1), bias=False)
            (1): BatchNorm2d(136, eps=1e-05, momentum=0.1, affine=True, track_running_stats=True)
          )
        )
        (stochastic_depth): StochasticDepth(p=0.1076923076923077, mode=row)
      )
      (2): MBConv(
        (block): Sequential(
          (0): Conv2dNormActivation(
            (0): Conv2d(136, 816, kernel_size=(1, 1), stride=(1, 1), bias=False)
            (1): BatchNorm2d(816, eps=1e-05, momentum=0.1, affine=True, track_running_stats=True)
            (2): SiLU(inplace=True)
          )
          (1): Conv2dNormActivation(
            (0): Conv2d(816, 816, kernel_size=(5, 5), stride=(1, 1), padding=(2, 2), groups=816, bias=False)
            (1): BatchNorm2d(816, eps=1e-05, momentum=0.1, affine=True, track_running_stats=True)
            (2): SiLU(inplace=True)
          )
          (2): SqueezeExcitation(
            (avgpool): AdaptiveAvgPool2d(output_size=1)
            (fc1): Conv2d(816, 34, kernel_size=(1, 1), stride=(1, 1))
            (fc2): Conv2d(34, 816, kernel_size=(1, 1), stride=(1, 1))
            (activation): SiLU(inplace=True)
            (scale_activation): Sigmoid()
          )
          (3): Conv2dNormActivation(
            (0): Conv2d(816, 136, kernel_size=(1, 1), stride=(1, 1), bias=False)
            (1): BatchNorm2d(136, eps=1e-05, momentum=0.1, affine=True, track_running_stats=True)
          )
        )
        (stochastic_depth): StochasticDepth(p=0.11538461538461539, mode=row)
      )
      (3): MBConv(
        (block): Sequential(
          (0): Conv2dNormActivation(
            (0): Conv2d(136, 816, kernel_size=(1, 1), stride=(1, 1), bias=False)
            (1): BatchNorm2d(816, eps=1e-05, momentum=0.1, affine=True, track_running_stats=True)
            (2): SiLU(inplace=True)
          )
          (1): Conv2dNormActivation(
            (0): Conv2d(816, 816, kernel_size=(5, 5), stride=(1, 1), padding=(2, 2), groups=816, bias=False)
            (1): BatchNorm2d(816, eps=1e-05, momentum=0.1, affine=True, track_running_stats=True)
            (2): SiLU(inplace=True)
          )
          (2): SqueezeExcitation(
            (avgpool): AdaptiveAvgPool2d(output_size=1)
            (fc1): Conv2d(816, 34, kernel_size=(1, 1), stride=(1, 1))
            (fc2): Conv2d(34, 816, kernel_size=(1, 1), stride=(1, 1))
            (activation): SiLU(inplace=True)
            (scale_activation): Sigmoid()
          )
          (3): Conv2dNormActivation(
            (0): Conv2d(816, 136, kernel_size=(1, 1), stride=(1, 1), bias=False)
            (1): BatchNorm2d(136, eps=1e-05, momentum=0.1, affine=True, track_running_stats=True)
          )
        )
        (stochastic_depth): StochasticDepth(p=0.12307692307692308, mode=row)
      )
      (4): MBConv(
        (block): Sequential(
          (0): Conv2dNormActivation(
            (0): Conv2d(136, 816, kernel_size=(1, 1), stride=(1, 1), bias=False)
            (1): BatchNorm2d(816, eps=1e-05, momentum=0.1, affine=True, track_running_stats=True)
            (2): SiLU(inplace=True)
          )
          (1): Conv2dNormActivation(
            (0): Conv2d(816, 816, kernel_size=(5, 5), stride=(1, 1), padding=(2, 2), groups=816, bias=False)
            (1): BatchNorm2d(816, eps=1e-05, momentum=0.1, affine=True, track_running_stats=True)
            (2): SiLU(inplace=True)
          )
          (2): SqueezeExcitation(
            (avgpool): AdaptiveAvgPool2d(output_size=1)
            (fc1): Conv2d(816, 34, kernel_size=(1, 1), stride=(1, 1))
            (fc2): Conv2d(34, 816, kernel_size=(1, 1), stride=(1, 1))
            (activation): SiLU(inplace=True)
            (scale_activation): Sigmoid()
          )
          (3): Conv2dNormActivation(
            (0): Conv2d(816, 136, kernel_size=(1, 1), stride=(1, 1), bias=False)
            (1): BatchNorm2d(136, eps=1e-05, momentum=0.1, affine=True, track_running_stats=True)
          )
        )
        (stochastic_depth): StochasticDepth(p=0.13076923076923078, mode=row)
      )
    )
    (6): Sequential(
      (0): MBConv(
        (block): Sequential(
          (0): Conv2dNormActivation(
            (0): Conv2d(136, 816, kernel_size=(1, 1), stride=(1, 1), bias=False)
            (1): BatchNorm2d(816, eps=1e-05, momentum=0.1, affine=True, track_running_stats=True)
            (2): SiLU(inplace=True)
          )
          (1): Conv2dNormActivation(
            (0): Conv2d(816, 816, kernel_size=(5, 5), stride=(2, 2), padding=(2, 2), groups=816, bias=False)
            (1): BatchNorm2d(816, eps=1e-05, momentum=0.1, affine=True, track_running_stats=True)
            (2): SiLU(inplace=True)
          )
          (2): SqueezeExcitation(
            (avgpool): AdaptiveAvgPool2d(output_size=1)
            (fc1): Conv2d(816, 34, kernel_size=(1, 1), stride=(1, 1))
            (fc2): Conv2d(34, 816, kernel_size=(1, 1), stride=(1, 1))
            (activation): SiLU(inplace=True)
            (scale_activation): Sigmoid()
          )
          (3): Conv2dNormActivation(
            (0): Conv2d(816, 232, kernel_size=(1, 1), stride=(1, 1), bias=False)
            (1): BatchNorm2d(232, eps=1e-05, momentum=0.1, affine=True, track_running_stats=True)
          )
        )
        (stochastic_depth): StochasticDepth(p=0.13846153846153847, mode=row)
      )
      (1): MBConv(
        (block): Sequential(
          (0): Conv2dNormActivation(
            (0): Conv2d(232, 1392, kernel_size=(1, 1), stride=(1, 1), bias=False)
            (1): BatchNorm2d(1392, eps=1e-05, momentum=0.1, affine=True, track_running_stats=True)
            (2): SiLU(inplace=True)
          )
          (1): Conv2dNormActivation(
            (0): Conv2d(1392, 1392, kernel_size=(5, 5), stride=(1, 1), padding=(2, 2), groups=1392, bias=False)
            (1): BatchNorm2d(1392, eps=1e-05, momentum=0.1, affine=True, track_running_stats=True)
            (2): SiLU(inplace=True)
          )
          (2): SqueezeExcitation(
            (avgpool): AdaptiveAvgPool2d(output_size=1)
            (fc1): Conv2d(1392, 58, kernel_size=(1, 1), stride=(1, 1))
            (fc2): Conv2d(58, 1392, kernel_size=(1, 1), stride=(1, 1))
            (activation): SiLU(inplace=True)
            (scale_activation): Sigmoid()
          )
          (3): Conv2dNormActivation(
            (0): Conv2d(1392, 232, kernel_size=(1, 1), stride=(1, 1), bias=False)
            (1): BatchNorm2d(232, eps=1e-05, momentum=0.1, affine=True, track_running_stats=True)
          )
        )
        (stochastic_depth): StochasticDepth(p=0.14615384615384616, mode=row)
      )
      (2): MBConv(
        (block): Sequential(
          (0): Conv2dNormActivation(
            (0): Conv2d(232, 1392, kernel_size=(1, 1), stride=(1, 1), bias=False)
            (1): BatchNorm2d(1392, eps=1e-05, momentum=0.1, affine=True, track_running_stats=True)
            (2): SiLU(inplace=True)
          )
          (1): Conv2dNormActivation(
            (0): Conv2d(1392, 1392, kernel_size=(5, 5), stride=(1, 1), padding=(2, 2), groups=1392, bias=False)
            (1): BatchNorm2d(1392, eps=1e-05, momentum=0.1, affine=True, track_running_stats=True)
            (2): SiLU(inplace=True)
          )
          (2): SqueezeExcitation(
            (avgpool): AdaptiveAvgPool2d(output_size=1)
            (fc1): Conv2d(1392, 58, kernel_size=(1, 1), stride=(1, 1))
            (fc2): Conv2d(58, 1392, kernel_size=(1, 1), stride=(1, 1))
            (activation): SiLU(inplace=True)
            (scale_activation): Sigmoid()
          )
          (3): Conv2dNormActivation(
            (0): Conv2d(1392, 232, kernel_size=(1, 1), stride=(1, 1), bias=False)
            (1): BatchNorm2d(232, eps=1e-05, momentum=0.1, affine=True, track_running_stats=True)
          )
        )
        (stochastic_depth): StochasticDepth(p=0.15384615384615385, mode=row)
      )
      (3): MBConv(
        (block): Sequential(
          (0): Conv2dNormActivation(
            (0): Conv2d(232, 1392, kernel_size=(1, 1), stride=(1, 1), bias=False)
            (1): BatchNorm2d(1392, eps=1e-05, momentum=0.1, affine=True, track_running_stats=True)
            (2): SiLU(inplace=True)
          )
          (1): Conv2dNormActivation(
            (0): Conv2d(1392, 1392, kernel_size=(5, 5), stride=(1, 1), padding=(2, 2), groups=1392, bias=False)
            (1): BatchNorm2d(1392, eps=1e-05, momentum=0.1, affine=True, track_running_stats=True)
            (2): SiLU(inplace=True)
          )
          (2): SqueezeExcitation(
            (avgpool): AdaptiveAvgPool2d(output_size=1)
            (fc1): Conv2d(1392, 58, kernel_size=(1, 1), stride=(1, 1))
            (fc2): Conv2d(58, 1392, kernel_size=(1, 1), stride=(1, 1))
            (activation): SiLU(inplace=True)
            (scale_activation): Sigmoid()
          )
          (3): Conv2dNormActivation(
            (0): Conv2d(1392, 232, kernel_size=(1, 1), stride=(1, 1), bias=False)
            (1): BatchNorm2d(232, eps=1e-05, momentum=0.1, affine=True, track_running_stats=True)
          )
        )
        (stochastic_depth): StochasticDepth(p=0.16153846153846155, mode=row)
      )
      (4): MBConv(
        (block): Sequential(
          (0): Conv2dNormActivation(
            (0): Conv2d(232, 1392, kernel_size=(1, 1), stride=(1, 1), bias=False)
            (1): BatchNorm2d(1392, eps=1e-05, momentum=0.1, affine=True, track_running_stats=True)
            (2): SiLU(inplace=True)
          )
          (1): Conv2dNormActivation(
            (0): Conv2d(1392, 1392, kernel_size=(5, 5), stride=(1, 1), padding=(2, 2), groups=1392, bias=False)
            (1): BatchNorm2d(1392, eps=1e-05, momentum=0.1, affine=True, track_running_stats=True)
            (2): SiLU(inplace=True)
          )
          (2): SqueezeExcitation(
            (avgpool): AdaptiveAvgPool2d(output_size=1)
            (fc1): Conv2d(1392, 58, kernel_size=(1, 1), stride=(1, 1))
            (fc2): Conv2d(58, 1392, kernel_size=(1, 1), stride=(1, 1))
            (activation): SiLU(inplace=True)
            (scale_activation): Sigmoid()
          )
          (3): Conv2dNormActivation(
            (0): Conv2d(1392, 232, kernel_size=(1, 1), stride=(1, 1), bias=False)
            (1): BatchNorm2d(232, eps=1e-05, momentum=0.1, affine=True, track_running_stats=True)
          )
        )
        (stochastic_depth): StochasticDepth(p=0.16923076923076924, mode=row)
      )
      (5): MBConv(
        (block): Sequential(
          (0): Conv2dNormActivation(
            (0): Conv2d(232, 1392, kernel_size=(1, 1), stride=(1, 1), bias=False)
            (1): BatchNorm2d(1392, eps=1e-05, momentum=0.1, affine=True, track_running_stats=True)
            (2): SiLU(inplace=True)
          )
          (1): Conv2dNormActivation(
            (0): Conv2d(1392, 1392, kernel_size=(5, 5), stride=(1, 1), padding=(2, 2), groups=1392, bias=False)
            (1): BatchNorm2d(1392, eps=1e-05, momentum=0.1, affine=True, track_running_stats=True)
            (2): SiLU(inplace=True)
          )
          (2): SqueezeExcitation(
            (avgpool): AdaptiveAvgPool2d(output_size=1)
            (fc1): Conv2d(1392, 58, kernel_size=(1, 1), stride=(1, 1))
            (fc2): Conv2d(58, 1392, kernel_size=(1, 1), stride=(1, 1))
            (activation): SiLU(inplace=True)
            (scale_activation): Sigmoid()
          )
          (3): Conv2dNormActivation(
            (0): Conv2d(1392, 232, kernel_size=(1, 1), stride=(1, 1), bias=False)
            (1): BatchNorm2d(232, eps=1e-05, momentum=0.1, affine=True, track_running_stats=True)
          )
        )
        (stochastic_depth): StochasticDepth(p=0.17692307692307693, mode=row)
      )
    )
    (7): Sequential(
      (0): MBConv(
        (block): Sequential(
          (0): Conv2dNormActivation(
            (0): Conv2d(232, 1392, kernel_size=(1, 1), stride=(1, 1), bias=False)
            (1): BatchNorm2d(1392, eps=1e-05, momentum=0.1, affine=True, track_running_stats=True)
            (2): SiLU(inplace=True)
          )
          (1): Conv2dNormActivation(
            (0): Conv2d(1392, 1392, kernel_size=(3, 3), stride=(1, 1), padding=(1, 1), groups=1392, bias=False)
            (1): BatchNorm2d(1392, eps=1e-05, momentum=0.1, affine=True, track_running_stats=True)
            (2): SiLU(inplace=True)
          )
          (2): SqueezeExcitation(
            (avgpool): AdaptiveAvgPool2d(output_size=1)
            (fc1): Conv2d(1392, 58, kernel_size=(1, 1), stride=(1, 1))
            (fc2): Conv2d(58, 1392, kernel_size=(1, 1), stride=(1, 1))
            (activation): SiLU(inplace=True)
            (scale_activation): Sigmoid()
          )
          (3): Conv2dNormActivation(
            (0): Conv2d(1392, 384, kernel_size=(1, 1), stride=(1, 1), bias=False)
            (1): BatchNorm2d(384, eps=1e-05, momentum=0.1, affine=True, track_running_stats=True)
          )
        )
        (stochastic_depth): StochasticDepth(p=0.18461538461538465, mode=row)
      )
      (1): MBConv(
        (block): Sequential(
          (0): Conv2dNormActivation(
            (0): Conv2d(384, 2304, kernel_size=(1, 1), stride=(1, 1), bias=False)
            (1): BatchNorm2d(2304, eps=1e-05, momentum=0.1, affine=True, track_running_stats=True)
            (2): SiLU(inplace=True)
          )
          (1): Conv2dNormActivation(
            (0): Conv2d(2304, 2304, kernel_size=(3, 3), stride=(1, 1), padding=(1, 1), groups=2304, bias=False)
            (1): BatchNorm2d(2304, eps=1e-05, momentum=0.1, affine=True, track_running_stats=True)
            (2): SiLU(inplace=True)
          )
          (2): SqueezeExcitation(
            (avgpool): AdaptiveAvgPool2d(output_size=1)
            (fc1): Conv2d(2304, 96, kernel_size=(1, 1), stride=(1, 1))
            (fc2): Conv2d(96, 2304, kernel_size=(1, 1), stride=(1, 1))
            (activation): SiLU(inplace=True)
            (scale_activation): Sigmoid()
          )
          (3): Conv2dNormActivation(
            (0): Conv2d(2304, 384, kernel_size=(1, 1), stride=(1, 1), bias=False)
            (1): BatchNorm2d(384, eps=1e-05, momentum=0.1, affine=True, track_running_stats=True)
          )
        )
        (stochastic_depth): StochasticDepth(p=0.19230769230769232, mode=row)
      )
    )
    (8): Conv2dNormActivation(
      (0): Conv2d(384, 1536, kernel_size=(1, 1), stride=(1, 1), bias=False)
      (1): BatchNorm2d(1536, eps=1e-05, momentum=0.1, affine=True, track_running_stats=True)
      (2): SiLU(inplace=True)
    )
  )
  (avgpool): AdaptiveAvgPool2d(output_size=1)
  (classifier): Sequential(
    (0): Dropout(p=0.2, inplace=False)
    (1): Linear(in_features=1536, out_features=128, bias=True)
    (2): ReLU()
    (3): Dropout(p=0.1, inplace=False)
    (4): Linear(in_features=128, out_features=1, bias=True)
  )
)

==================================================

4. COMBINED CLASSIFIER:
Sequential(
  (0): Linear(in_features=384, out_features=256, bias=True)
  (1): ReLU()
  (2): Dropout(p=0.3, inplace=False)
  (3): Linear(in_features=256, out_features=128, bias=True)
  (4): ReLU()
  (5): Dropout(p=0.2, inplace=False)
  (6): Linear(in_features=128, out_features=1, bias=True)
)

==================================================

5. FEATURE DIMENSIONS:
Skin Tone Model Features: 256
Melanoma Model Features: 128
Combined Features: 256 + 128 = 384

==================================================

6. PARAMETER COUNT:
Total Parameters: 23,957,850
Trainable Parameters: 131,585
Non-Trainable Parameters: 23,826,265

7. DETAILED PARAMETER BREAKDOWN:
…
